{"format": "layers-model", "generatedBy": "keras v2.3.0-tf", "convertedBy": "TensorFlow.js Converter v1.7.2", "modelTopology": {"keras_version": "2.3.0-tf", "backend": "tensorflow", "model_config": {"class_name": "Model", "config": {"name": "pokemonresnet", "layers": [{"class_name": "InputLayer", "config": {"batch_input_shape": [null, 112, 112, 3], "dtype": "float32", "sparse": false, "ragged": false, "name": "input_4"}, "name": "input_4", "inbound_nodes": []}, {"class_name": "ZeroPadding2D", "config": {"name": "conv1_pad", "trainable": true, "dtype": "float32", "padding": [[3, 3], [3, 3]], "data_format": "channels_last"}, "name": "conv1_pad", "inbound_nodes": [[["input_4", 0, 0, {}]]]}, {"class_name": "Conv2D", "config": {"name": "conv1", "trainable": true, "dtype": "float32", "filters": 64, "kernel_size": [7, 7], "strides": [2, 2], "padding": "valid", "data_format": "channels_last", "dilation_rate": [1, 1], "activation": "linear", "use_bias": true, "kernel_initializer": {"class_name": "VarianceScaling", "config": {"scale": 2.0, "mode": "fan_in", "distribution": "truncated_normal", "seed": null}}, "bias_initializer": {"class_name": "Zeros", "config": {}}, "kernel_regularizer": null, "bias_regularizer": null, "activity_regularizer": null, "kernel_constraint": null, "bias_constraint": null}, "name": "conv1", "inbound_nodes": [[["conv1_pad", 0, 0, {}]]]}, {"class_name": "BatchNormalization", "config": {"name": "bn_conv1", "trainable": true, "dtype": "float32", "axis": [3], "momentum": 0.99, "epsilon": 0.001, "center": true, "scale": true, "beta_initializer": {"class_name": "Zeros", "config": {}}, "gamma_initializer": {"class_name": "Ones", "config": {}}, "moving_mean_initializer": {"class_name": "Zeros", "config": {}}, "moving_variance_initializer": {"class_name": "Ones", "config": {}}, "beta_regularizer": null, "gamma_regularizer": null, "beta_constraint": null, "gamma_constraint": null}, "name": "bn_conv1", "inbound_nodes": [[["conv1", 0, 0, {}]]]}, {"class_name": "Activation", "config": {"name": "activation_147", "trainable": true, "dtype": "float32", "activation": "relu"}, "name": "activation_147", "inbound_nodes": [[["bn_conv1", 0, 0, {}]]]}, {"class_name": "ZeroPadding2D", "config": {"name": "pool1_pad", "trainable": true, "dtype": "float32", "padding": [[1, 1], [1, 1]], "data_format": "channels_last"}, "name": "pool1_pad", "inbound_nodes": [[["activation_147", 0, 0, {}]]]}, {"class_name": "MaxPooling2D", "config": {"name": "max_pooling2d_3", "trainable": true, "dtype": "float32", "pool_size": [3, 3], "padding": "valid", "strides": [2, 2], "data_format": "channels_last"}, "name": "max_pooling2d_3", "inbound_nodes": [[["pool1_pad", 0, 0, {}]]]}, {"class_name": "Conv2D", "config": {"name": "res2a_branch2a", "trainable": true, "dtype": "float32", "filters": 64, "kernel_size": [1, 1], "strides": [1, 1], "padding": "valid", "data_format": "channels_last", "dilation_rate": [1, 1], "activation": "linear", "use_bias": true, "kernel_initializer": {"class_name": "VarianceScaling", "config": {"scale": 2.0, "mode": "fan_in", "distribution": "truncated_normal", "seed": null}}, "bias_initializer": {"class_name": "Zeros", "config": {}}, "kernel_regularizer": null, "bias_regularizer": null, "activity_regularizer": null, "kernel_constraint": null, "bias_constraint": null}, "name": "res2a_branch2a", "inbound_nodes": [[["max_pooling2d_3", 0, 0, {}]]]}, {"class_name": "BatchNormalization", "config": {"name": "bn2a_branch2a", "trainable": true, "dtype": "float32", "axis": [3], "momentum": 0.99, "epsilon": 0.001, "center": true, "scale": true, "beta_initializer": {"class_name": "Zeros", "config": {}}, "gamma_initializer": {"class_name": "Ones", "config": {}}, "moving_mean_initializer": {"class_name": "Zeros", "config": {}}, "moving_variance_initializer": {"class_name": "Ones", "config": {}}, "beta_regularizer": null, "gamma_regularizer": null, "beta_constraint": null, "gamma_constraint": null}, "name": "bn2a_branch2a", "inbound_nodes": [[["res2a_branch2a", 0, 0, {}]]]}, {"class_name": "Activation", "config": {"name": "activation_148", "trainable": true, "dtype": "float32", "activation": "relu"}, "name": "activation_148", "inbound_nodes": [[["bn2a_branch2a", 0, 0, {}]]]}, {"class_name": "Conv2D", "config": {"name": "res2a_branch2b", "trainable": true, "dtype": "float32", "filters": 64, "kernel_size": [3, 3], "strides": [1, 1], "padding": "same", "data_format": "channels_last", "dilation_rate": [1, 1], "activation": "linear", "use_bias": true, "kernel_initializer": {"class_name": "VarianceScaling", "config": {"scale": 2.0, "mode": "fan_in", "distribution": "truncated_normal", "seed": null}}, "bias_initializer": {"class_name": "Zeros", "config": {}}, "kernel_regularizer": null, "bias_regularizer": null, "activity_regularizer": null, "kernel_constraint": null, "bias_constraint": null}, "name": "res2a_branch2b", "inbound_nodes": [[["activation_148", 0, 0, {}]]]}, {"class_name": "BatchNormalization", "config": {"name": "bn2a_branch2b", "trainable": true, "dtype": "float32", "axis": [3], "momentum": 0.99, "epsilon": 0.001, "center": true, "scale": true, "beta_initializer": {"class_name": "Zeros", "config": {}}, "gamma_initializer": {"class_name": "Ones", "config": {}}, "moving_mean_initializer": {"class_name": "Zeros", "config": {}}, "moving_variance_initializer": {"class_name": "Ones", "config": {}}, "beta_regularizer": null, "gamma_regularizer": null, "beta_constraint": null, "gamma_constraint": null}, "name": "bn2a_branch2b", "inbound_nodes": [[["res2a_branch2b", 0, 0, {}]]]}, {"class_name": "Activation", "config": {"name": "activation_149", "trainable": true, "dtype": "float32", "activation": "relu"}, "name": "activation_149", "inbound_nodes": [[["bn2a_branch2b", 0, 0, {}]]]}, {"class_name": "Conv2D", "config": {"name": "res2a_branch2c", "trainable": true, "dtype": "float32", "filters": 256, "kernel_size": [1, 1], "strides": [1, 1], "padding": "valid", "data_format": "channels_last", "dilation_rate": [1, 1], "activation": "linear", "use_bias": true, "kernel_initializer": {"class_name": "VarianceScaling", "config": {"scale": 2.0, "mode": "fan_in", "distribution": "truncated_normal", "seed": null}}, "bias_initializer": {"class_name": "Zeros", "config": {}}, "kernel_regularizer": null, "bias_regularizer": null, "activity_regularizer": null, "kernel_constraint": null, "bias_constraint": null}, "name": "res2a_branch2c", "inbound_nodes": [[["activation_149", 0, 0, {}]]]}, {"class_name": "Conv2D", "config": {"name": "res2a_branch1", "trainable": true, "dtype": "float32", "filters": 256, "kernel_size": [1, 1], "strides": [1, 1], "padding": "valid", "data_format": "channels_last", "dilation_rate": [1, 1], "activation": "linear", "use_bias": true, "kernel_initializer": {"class_name": "VarianceScaling", "config": {"scale": 2.0, "mode": "fan_in", "distribution": "truncated_normal", "seed": null}}, "bias_initializer": {"class_name": "Zeros", "config": {}}, "kernel_regularizer": null, "bias_regularizer": null, "activity_regularizer": null, "kernel_constraint": null, "bias_constraint": null}, "name": "res2a_branch1", "inbound_nodes": [[["max_pooling2d_3", 0, 0, {}]]]}, {"class_name": "BatchNormalization", "config": {"name": "bn2a_branch2c", "trainable": true, "dtype": "float32", "axis": [3], "momentum": 0.99, "epsilon": 0.001, "center": true, "scale": true, "beta_initializer": {"class_name": "Zeros", "config": {}}, "gamma_initializer": {"class_name": "Ones", "config": {}}, "moving_mean_initializer": {"class_name": "Zeros", "config": {}}, "moving_variance_initializer": {"class_name": "Ones", "config": {}}, "beta_regularizer": null, "gamma_regularizer": null, "beta_constraint": null, "gamma_constraint": null}, "name": "bn2a_branch2c", "inbound_nodes": [[["res2a_branch2c", 0, 0, {}]]]}, {"class_name": "BatchNormalization", "config": {"name": "bn2a_branch1", "trainable": true, "dtype": "float32", "axis": [3], "momentum": 0.99, "epsilon": 0.001, "center": true, "scale": true, "beta_initializer": {"class_name": "Zeros", "config": {}}, "gamma_initializer": {"class_name": "Ones", "config": {}}, "moving_mean_initializer": {"class_name": "Zeros", "config": {}}, "moving_variance_initializer": {"class_name": "Ones", "config": {}}, "beta_regularizer": null, "gamma_regularizer": null, "beta_constraint": null, "gamma_constraint": null}, "name": "bn2a_branch1", "inbound_nodes": [[["res2a_branch1", 0, 0, {}]]]}, {"class_name": "Add", "config": {"name": "add_48", "trainable": true, "dtype": "float32"}, "name": "add_48", "inbound_nodes": [[["bn2a_branch2c", 0, 0, {}], ["bn2a_branch1", 0, 0, {}]]]}, {"class_name": "Activation", "config": {"name": "activation_150", "trainable": true, "dtype": "float32", "activation": "relu"}, "name": "activation_150", "inbound_nodes": [[["add_48", 0, 0, {}]]]}, {"class_name": "Conv2D", "config": {"name": "res2b_branch2a", "trainable": true, "dtype": "float32", "filters": 64, "kernel_size": [1, 1], "strides": [1, 1], "padding": "valid", "data_format": "channels_last", "dilation_rate": [1, 1], "activation": "linear", "use_bias": true, "kernel_initializer": {"class_name": "VarianceScaling", "config": {"scale": 2.0, "mode": "fan_in", "distribution": "truncated_normal", "seed": null}}, "bias_initializer": {"class_name": "Zeros", "config": {}}, "kernel_regularizer": null, "bias_regularizer": null, "activity_regularizer": null, "kernel_constraint": null, "bias_constraint": null}, "name": "res2b_branch2a", "inbound_nodes": [[["activation_150", 0, 0, {}]]]}, {"class_name": "BatchNormalization", "config": {"name": "bn2b_branch2a", "trainable": true, "dtype": "float32", "axis": [3], "momentum": 0.99, "epsilon": 0.001, "center": true, "scale": true, "beta_initializer": {"class_name": "Zeros", "config": {}}, "gamma_initializer": {"class_name": "Ones", "config": {}}, "moving_mean_initializer": {"class_name": "Zeros", "config": {}}, "moving_variance_initializer": {"class_name": "Ones", "config": {}}, "beta_regularizer": null, "gamma_regularizer": null, "beta_constraint": null, "gamma_constraint": null}, "name": "bn2b_branch2a", "inbound_nodes": [[["res2b_branch2a", 0, 0, {}]]]}, {"class_name": "Activation", "config": {"name": "activation_151", "trainable": true, "dtype": "float32", "activation": "relu"}, "name": "activation_151", "inbound_nodes": [[["bn2b_branch2a", 0, 0, {}]]]}, {"class_name": "Conv2D", "config": {"name": "res2b_branch2b", "trainable": true, "dtype": "float32", "filters": 64, "kernel_size": [3, 3], "strides": [1, 1], "padding": "same", "data_format": "channels_last", "dilation_rate": [1, 1], "activation": "linear", "use_bias": true, "kernel_initializer": {"class_name": "VarianceScaling", "config": {"scale": 2.0, "mode": "fan_in", "distribution": "truncated_normal", "seed": null}}, "bias_initializer": {"class_name": "Zeros", "config": {}}, "kernel_regularizer": null, "bias_regularizer": null, "activity_regularizer": null, "kernel_constraint": null, "bias_constraint": null}, "name": "res2b_branch2b", "inbound_nodes": [[["activation_151", 0, 0, {}]]]}, {"class_name": "BatchNormalization", "config": {"name": "bn2b_branch2b", "trainable": true, "dtype": "float32", "axis": [3], "momentum": 0.99, "epsilon": 0.001, "center": true, "scale": true, "beta_initializer": {"class_name": "Zeros", "config": {}}, "gamma_initializer": {"class_name": "Ones", "config": {}}, "moving_mean_initializer": {"class_name": "Zeros", "config": {}}, "moving_variance_initializer": {"class_name": "Ones", "config": {}}, "beta_regularizer": null, "gamma_regularizer": null, "beta_constraint": null, "gamma_constraint": null}, "name": "bn2b_branch2b", "inbound_nodes": [[["res2b_branch2b", 0, 0, {}]]]}, {"class_name": "Activation", "config": {"name": "activation_152", "trainable": true, "dtype": "float32", "activation": "relu"}, "name": "activation_152", "inbound_nodes": [[["bn2b_branch2b", 0, 0, {}]]]}, {"class_name": "Conv2D", "config": {"name": "res2b_branch2c", "trainable": true, "dtype": "float32", "filters": 256, "kernel_size": [1, 1], "strides": [1, 1], "padding": "valid", "data_format": "channels_last", "dilation_rate": [1, 1], "activation": "linear", "use_bias": true, "kernel_initializer": {"class_name": "VarianceScaling", "config": {"scale": 2.0, "mode": "fan_in", "distribution": "truncated_normal", "seed": null}}, "bias_initializer": {"class_name": "Zeros", "config": {}}, "kernel_regularizer": null, "bias_regularizer": null, "activity_regularizer": null, "kernel_constraint": null, "bias_constraint": null}, "name": "res2b_branch2c", "inbound_nodes": [[["activation_152", 0, 0, {}]]]}, {"class_name": "BatchNormalization", "config": {"name": "bn2b_branch2c", "trainable": true, "dtype": "float32", "axis": [3], "momentum": 0.99, "epsilon": 0.001, "center": true, "scale": true, "beta_initializer": {"class_name": "Zeros", "config": {}}, "gamma_initializer": {"class_name": "Ones", "config": {}}, "moving_mean_initializer": {"class_name": "Zeros", "config": {}}, "moving_variance_initializer": {"class_name": "Ones", "config": {}}, "beta_regularizer": null, "gamma_regularizer": null, "beta_constraint": null, "gamma_constraint": null}, "name": "bn2b_branch2c", "inbound_nodes": [[["res2b_branch2c", 0, 0, {}]]]}, {"class_name": "Add", "config": {"name": "add_49", "trainable": true, "dtype": "float32"}, "name": "add_49", "inbound_nodes": [[["bn2b_branch2c", 0, 0, {}], ["activation_150", 0, 0, {}]]]}, {"class_name": "Activation", "config": {"name": "activation_153", "trainable": true, "dtype": "float32", "activation": "relu"}, "name": "activation_153", "inbound_nodes": [[["add_49", 0, 0, {}]]]}, {"class_name": "Conv2D", "config": {"name": "res2c_branch2a", "trainable": true, "dtype": "float32", "filters": 64, "kernel_size": [1, 1], "strides": [1, 1], "padding": "valid", "data_format": "channels_last", "dilation_rate": [1, 1], "activation": "linear", "use_bias": true, "kernel_initializer": {"class_name": "VarianceScaling", "config": {"scale": 2.0, "mode": "fan_in", "distribution": "truncated_normal", "seed": null}}, "bias_initializer": {"class_name": "Zeros", "config": {}}, "kernel_regularizer": null, "bias_regularizer": null, "activity_regularizer": null, "kernel_constraint": null, "bias_constraint": null}, "name": "res2c_branch2a", "inbound_nodes": [[["activation_153", 0, 0, {}]]]}, {"class_name": "BatchNormalization", "config": {"name": "bn2c_branch2a", "trainable": true, "dtype": "float32", "axis": [3], "momentum": 0.99, "epsilon": 0.001, "center": true, "scale": true, "beta_initializer": {"class_name": "Zeros", "config": {}}, "gamma_initializer": {"class_name": "Ones", "config": {}}, "moving_mean_initializer": {"class_name": "Zeros", "config": {}}, "moving_variance_initializer": {"class_name": "Ones", "config": {}}, "beta_regularizer": null, "gamma_regularizer": null, "beta_constraint": null, "gamma_constraint": null}, "name": "bn2c_branch2a", "inbound_nodes": [[["res2c_branch2a", 0, 0, {}]]]}, {"class_name": "Activation", "config": {"name": "activation_154", "trainable": true, "dtype": "float32", "activation": "relu"}, "name": "activation_154", "inbound_nodes": [[["bn2c_branch2a", 0, 0, {}]]]}, {"class_name": "Conv2D", "config": {"name": "res2c_branch2b", "trainable": true, "dtype": "float32", "filters": 64, "kernel_size": [3, 3], "strides": [1, 1], "padding": "same", "data_format": "channels_last", "dilation_rate": [1, 1], "activation": "linear", "use_bias": true, "kernel_initializer": {"class_name": "VarianceScaling", "config": {"scale": 2.0, "mode": "fan_in", "distribution": "truncated_normal", "seed": null}}, "bias_initializer": {"class_name": "Zeros", "config": {}}, "kernel_regularizer": null, "bias_regularizer": null, "activity_regularizer": null, "kernel_constraint": null, "bias_constraint": null}, "name": "res2c_branch2b", "inbound_nodes": [[["activation_154", 0, 0, {}]]]}, {"class_name": "BatchNormalization", "config": {"name": "bn2c_branch2b", "trainable": true, "dtype": "float32", "axis": [3], "momentum": 0.99, "epsilon": 0.001, "center": true, "scale": true, "beta_initializer": {"class_name": "Zeros", "config": {}}, "gamma_initializer": {"class_name": "Ones", "config": {}}, "moving_mean_initializer": {"class_name": "Zeros", "config": {}}, "moving_variance_initializer": {"class_name": "Ones", "config": {}}, "beta_regularizer": null, "gamma_regularizer": null, "beta_constraint": null, "gamma_constraint": null}, "name": "bn2c_branch2b", "inbound_nodes": [[["res2c_branch2b", 0, 0, {}]]]}, {"class_name": "Activation", "config": {"name": "activation_155", "trainable": true, "dtype": "float32", "activation": "relu"}, "name": "activation_155", "inbound_nodes": [[["bn2c_branch2b", 0, 0, {}]]]}, {"class_name": "Conv2D", "config": {"name": "res2c_branch2c", "trainable": true, "dtype": "float32", "filters": 256, "kernel_size": [1, 1], "strides": [1, 1], "padding": "valid", "data_format": "channels_last", "dilation_rate": [1, 1], "activation": "linear", "use_bias": true, "kernel_initializer": {"class_name": "VarianceScaling", "config": {"scale": 2.0, "mode": "fan_in", "distribution": "truncated_normal", "seed": null}}, "bias_initializer": {"class_name": "Zeros", "config": {}}, "kernel_regularizer": null, "bias_regularizer": null, "activity_regularizer": null, "kernel_constraint": null, "bias_constraint": null}, "name": "res2c_branch2c", "inbound_nodes": [[["activation_155", 0, 0, {}]]]}, {"class_name": "BatchNormalization", "config": {"name": "bn2c_branch2c", "trainable": true, "dtype": "float32", "axis": [3], "momentum": 0.99, "epsilon": 0.001, "center": true, "scale": true, "beta_initializer": {"class_name": "Zeros", "config": {}}, "gamma_initializer": {"class_name": "Ones", "config": {}}, "moving_mean_initializer": {"class_name": "Zeros", "config": {}}, "moving_variance_initializer": {"class_name": "Ones", "config": {}}, "beta_regularizer": null, "gamma_regularizer": null, "beta_constraint": null, "gamma_constraint": null}, "name": "bn2c_branch2c", "inbound_nodes": [[["res2c_branch2c", 0, 0, {}]]]}, {"class_name": "Add", "config": {"name": "add_50", "trainable": true, "dtype": "float32"}, "name": "add_50", "inbound_nodes": [[["bn2c_branch2c", 0, 0, {}], ["activation_153", 0, 0, {}]]]}, {"class_name": "Activation", "config": {"name": "activation_156", "trainable": true, "dtype": "float32", "activation": "relu"}, "name": "activation_156", "inbound_nodes": [[["add_50", 0, 0, {}]]]}, {"class_name": "Conv2D", "config": {"name": "res3a_branch2a", "trainable": true, "dtype": "float32", "filters": 128, "kernel_size": [1, 1], "strides": [2, 2], "padding": "valid", "data_format": "channels_last", "dilation_rate": [1, 1], "activation": "linear", "use_bias": true, "kernel_initializer": {"class_name": "VarianceScaling", "config": {"scale": 2.0, "mode": "fan_in", "distribution": "truncated_normal", "seed": null}}, "bias_initializer": {"class_name": "Zeros", "config": {}}, "kernel_regularizer": null, "bias_regularizer": null, "activity_regularizer": null, "kernel_constraint": null, "bias_constraint": null}, "name": "res3a_branch2a", "inbound_nodes": [[["activation_156", 0, 0, {}]]]}, {"class_name": "BatchNormalization", "config": {"name": "bn3a_branch2a", "trainable": true, "dtype": "float32", "axis": [3], "momentum": 0.99, "epsilon": 0.001, "center": true, "scale": true, "beta_initializer": {"class_name": "Zeros", "config": {}}, "gamma_initializer": {"class_name": "Ones", "config": {}}, "moving_mean_initializer": {"class_name": "Zeros", "config": {}}, "moving_variance_initializer": {"class_name": "Ones", "config": {}}, "beta_regularizer": null, "gamma_regularizer": null, "beta_constraint": null, "gamma_constraint": null}, "name": "bn3a_branch2a", "inbound_nodes": [[["res3a_branch2a", 0, 0, {}]]]}, {"class_name": "Activation", "config": {"name": "activation_157", "trainable": true, "dtype": "float32", "activation": "relu"}, "name": "activation_157", "inbound_nodes": [[["bn3a_branch2a", 0, 0, {}]]]}, {"class_name": "Conv2D", "config": {"name": "res3a_branch2b", "trainable": true, "dtype": "float32", "filters": 128, "kernel_size": [3, 3], "strides": [1, 1], "padding": "same", "data_format": "channels_last", "dilation_rate": [1, 1], "activation": "linear", "use_bias": true, "kernel_initializer": {"class_name": "VarianceScaling", "config": {"scale": 2.0, "mode": "fan_in", "distribution": "truncated_normal", "seed": null}}, "bias_initializer": {"class_name": "Zeros", "config": {}}, "kernel_regularizer": null, "bias_regularizer": null, "activity_regularizer": null, "kernel_constraint": null, "bias_constraint": null}, "name": "res3a_branch2b", "inbound_nodes": [[["activation_157", 0, 0, {}]]]}, {"class_name": "BatchNormalization", "config": {"name": "bn3a_branch2b", "trainable": true, "dtype": "float32", "axis": [3], "momentum": 0.99, "epsilon": 0.001, "center": true, "scale": true, "beta_initializer": {"class_name": "Zeros", "config": {}}, "gamma_initializer": {"class_name": "Ones", "config": {}}, "moving_mean_initializer": {"class_name": "Zeros", "config": {}}, "moving_variance_initializer": {"class_name": "Ones", "config": {}}, "beta_regularizer": null, "gamma_regularizer": null, "beta_constraint": null, "gamma_constraint": null}, "name": "bn3a_branch2b", "inbound_nodes": [[["res3a_branch2b", 0, 0, {}]]]}, {"class_name": "Activation", "config": {"name": "activation_158", "trainable": true, "dtype": "float32", "activation": "relu"}, "name": "activation_158", "inbound_nodes": [[["bn3a_branch2b", 0, 0, {}]]]}, {"class_name": "Conv2D", "config": {"name": "res3a_branch2c", "trainable": true, "dtype": "float32", "filters": 512, "kernel_size": [1, 1], "strides": [1, 1], "padding": "valid", "data_format": "channels_last", "dilation_rate": [1, 1], "activation": "linear", "use_bias": true, "kernel_initializer": {"class_name": "VarianceScaling", "config": {"scale": 2.0, "mode": "fan_in", "distribution": "truncated_normal", "seed": null}}, "bias_initializer": {"class_name": "Zeros", "config": {}}, "kernel_regularizer": null, "bias_regularizer": null, "activity_regularizer": null, "kernel_constraint": null, "bias_constraint": null}, "name": "res3a_branch2c", "inbound_nodes": [[["activation_158", 0, 0, {}]]]}, {"class_name": "Conv2D", "config": {"name": "res3a_branch1", "trainable": true, "dtype": "float32", "filters": 512, "kernel_size": [1, 1], "strides": [2, 2], "padding": "valid", "data_format": "channels_last", "dilation_rate": [1, 1], "activation": "linear", "use_bias": true, "kernel_initializer": {"class_name": "VarianceScaling", "config": {"scale": 2.0, "mode": "fan_in", "distribution": "truncated_normal", "seed": null}}, "bias_initializer": {"class_name": "Zeros", "config": {}}, "kernel_regularizer": null, "bias_regularizer": null, "activity_regularizer": null, "kernel_constraint": null, "bias_constraint": null}, "name": "res3a_branch1", "inbound_nodes": [[["activation_156", 0, 0, {}]]]}, {"class_name": "BatchNormalization", "config": {"name": "bn3a_branch2c", "trainable": true, "dtype": "float32", "axis": [3], "momentum": 0.99, "epsilon": 0.001, "center": true, "scale": true, "beta_initializer": {"class_name": "Zeros", "config": {}}, "gamma_initializer": {"class_name": "Ones", "config": {}}, "moving_mean_initializer": {"class_name": "Zeros", "config": {}}, "moving_variance_initializer": {"class_name": "Ones", "config": {}}, "beta_regularizer": null, "gamma_regularizer": null, "beta_constraint": null, "gamma_constraint": null}, "name": "bn3a_branch2c", "inbound_nodes": [[["res3a_branch2c", 0, 0, {}]]]}, {"class_name": "BatchNormalization", "config": {"name": "bn3a_branch1", "trainable": true, "dtype": "float32", "axis": [3], "momentum": 0.99, "epsilon": 0.001, "center": true, "scale": true, "beta_initializer": {"class_name": "Zeros", "config": {}}, "gamma_initializer": {"class_name": "Ones", "config": {}}, "moving_mean_initializer": {"class_name": "Zeros", "config": {}}, "moving_variance_initializer": {"class_name": "Ones", "config": {}}, "beta_regularizer": null, "gamma_regularizer": null, "beta_constraint": null, "gamma_constraint": null}, "name": "bn3a_branch1", "inbound_nodes": [[["res3a_branch1", 0, 0, {}]]]}, {"class_name": "Add", "config": {"name": "add_51", "trainable": true, "dtype": "float32"}, "name": "add_51", "inbound_nodes": [[["bn3a_branch2c", 0, 0, {}], ["bn3a_branch1", 0, 0, {}]]]}, {"class_name": "Activation", "config": {"name": "activation_159", "trainable": true, "dtype": "float32", "activation": "relu"}, "name": "activation_159", "inbound_nodes": [[["add_51", 0, 0, {}]]]}, {"class_name": "Conv2D", "config": {"name": "res3b_branch2a", "trainable": true, "dtype": "float32", "filters": 128, "kernel_size": [1, 1], "strides": [1, 1], "padding": "valid", "data_format": "channels_last", "dilation_rate": [1, 1], "activation": "linear", "use_bias": true, "kernel_initializer": {"class_name": "VarianceScaling", "config": {"scale": 2.0, "mode": "fan_in", "distribution": "truncated_normal", "seed": null}}, "bias_initializer": {"class_name": "Zeros", "config": {}}, "kernel_regularizer": null, "bias_regularizer": null, "activity_regularizer": null, "kernel_constraint": null, "bias_constraint": null}, "name": "res3b_branch2a", "inbound_nodes": [[["activation_159", 0, 0, {}]]]}, {"class_name": "BatchNormalization", "config": {"name": "bn3b_branch2a", "trainable": true, "dtype": "float32", "axis": [3], "momentum": 0.99, "epsilon": 0.001, "center": true, "scale": true, "beta_initializer": {"class_name": "Zeros", "config": {}}, "gamma_initializer": {"class_name": "Ones", "config": {}}, "moving_mean_initializer": {"class_name": "Zeros", "config": {}}, "moving_variance_initializer": {"class_name": "Ones", "config": {}}, "beta_regularizer": null, "gamma_regularizer": null, "beta_constraint": null, "gamma_constraint": null}, "name": "bn3b_branch2a", "inbound_nodes": [[["res3b_branch2a", 0, 0, {}]]]}, {"class_name": "Activation", "config": {"name": "activation_160", "trainable": true, "dtype": "float32", "activation": "relu"}, "name": "activation_160", "inbound_nodes": [[["bn3b_branch2a", 0, 0, {}]]]}, {"class_name": "Conv2D", "config": {"name": "res3b_branch2b", "trainable": true, "dtype": "float32", "filters": 128, "kernel_size": [3, 3], "strides": [1, 1], "padding": "same", "data_format": "channels_last", "dilation_rate": [1, 1], "activation": "linear", "use_bias": true, "kernel_initializer": {"class_name": "VarianceScaling", "config": {"scale": 2.0, "mode": "fan_in", "distribution": "truncated_normal", "seed": null}}, "bias_initializer": {"class_name": "Zeros", "config": {}}, "kernel_regularizer": null, "bias_regularizer": null, "activity_regularizer": null, "kernel_constraint": null, "bias_constraint": null}, "name": "res3b_branch2b", "inbound_nodes": [[["activation_160", 0, 0, {}]]]}, {"class_name": "BatchNormalization", "config": {"name": "bn3b_branch2b", "trainable": true, "dtype": "float32", "axis": [3], "momentum": 0.99, "epsilon": 0.001, "center": true, "scale": true, "beta_initializer": {"class_name": "Zeros", "config": {}}, "gamma_initializer": {"class_name": "Ones", "config": {}}, "moving_mean_initializer": {"class_name": "Zeros", "config": {}}, "moving_variance_initializer": {"class_name": "Ones", "config": {}}, "beta_regularizer": null, "gamma_regularizer": null, "beta_constraint": null, "gamma_constraint": null}, "name": "bn3b_branch2b", "inbound_nodes": [[["res3b_branch2b", 0, 0, {}]]]}, {"class_name": "Activation", "config": {"name": "activation_161", "trainable": true, "dtype": "float32", "activation": "relu"}, "name": "activation_161", "inbound_nodes": [[["bn3b_branch2b", 0, 0, {}]]]}, {"class_name": "Conv2D", "config": {"name": "res3b_branch2c", "trainable": true, "dtype": "float32", "filters": 512, "kernel_size": [1, 1], "strides": [1, 1], "padding": "valid", "data_format": "channels_last", "dilation_rate": [1, 1], "activation": "linear", "use_bias": true, "kernel_initializer": {"class_name": "VarianceScaling", "config": {"scale": 2.0, "mode": "fan_in", "distribution": "truncated_normal", "seed": null}}, "bias_initializer": {"class_name": "Zeros", "config": {}}, "kernel_regularizer": null, "bias_regularizer": null, "activity_regularizer": null, "kernel_constraint": null, "bias_constraint": null}, "name": "res3b_branch2c", "inbound_nodes": [[["activation_161", 0, 0, {}]]]}, {"class_name": "BatchNormalization", "config": {"name": "bn3b_branch2c", "trainable": true, "dtype": "float32", "axis": [3], "momentum": 0.99, "epsilon": 0.001, "center": true, "scale": true, "beta_initializer": {"class_name": "Zeros", "config": {}}, "gamma_initializer": {"class_name": "Ones", "config": {}}, "moving_mean_initializer": {"class_name": "Zeros", "config": {}}, "moving_variance_initializer": {"class_name": "Ones", "config": {}}, "beta_regularizer": null, "gamma_regularizer": null, "beta_constraint": null, "gamma_constraint": null}, "name": "bn3b_branch2c", "inbound_nodes": [[["res3b_branch2c", 0, 0, {}]]]}, {"class_name": "Add", "config": {"name": "add_52", "trainable": true, "dtype": "float32"}, "name": "add_52", "inbound_nodes": [[["bn3b_branch2c", 0, 0, {}], ["activation_159", 0, 0, {}]]]}, {"class_name": "Activation", "config": {"name": "activation_162", "trainable": true, "dtype": "float32", "activation": "relu"}, "name": "activation_162", "inbound_nodes": [[["add_52", 0, 0, {}]]]}, {"class_name": "Conv2D", "config": {"name": "res3c_branch2a", "trainable": true, "dtype": "float32", "filters": 128, "kernel_size": [1, 1], "strides": [1, 1], "padding": "valid", "data_format": "channels_last", "dilation_rate": [1, 1], "activation": "linear", "use_bias": true, "kernel_initializer": {"class_name": "VarianceScaling", "config": {"scale": 2.0, "mode": "fan_in", "distribution": "truncated_normal", "seed": null}}, "bias_initializer": {"class_name": "Zeros", "config": {}}, "kernel_regularizer": null, "bias_regularizer": null, "activity_regularizer": null, "kernel_constraint": null, "bias_constraint": null}, "name": "res3c_branch2a", "inbound_nodes": [[["activation_162", 0, 0, {}]]]}, {"class_name": "BatchNormalization", "config": {"name": "bn3c_branch2a", "trainable": true, "dtype": "float32", "axis": [3], "momentum": 0.99, "epsilon": 0.001, "center": true, "scale": true, "beta_initializer": {"class_name": "Zeros", "config": {}}, "gamma_initializer": {"class_name": "Ones", "config": {}}, "moving_mean_initializer": {"class_name": "Zeros", "config": {}}, "moving_variance_initializer": {"class_name": "Ones", "config": {}}, "beta_regularizer": null, "gamma_regularizer": null, "beta_constraint": null, "gamma_constraint": null}, "name": "bn3c_branch2a", "inbound_nodes": [[["res3c_branch2a", 0, 0, {}]]]}, {"class_name": "Activation", "config": {"name": "activation_163", "trainable": true, "dtype": "float32", "activation": "relu"}, "name": "activation_163", "inbound_nodes": [[["bn3c_branch2a", 0, 0, {}]]]}, {"class_name": "Conv2D", "config": {"name": "res3c_branch2b", "trainable": true, "dtype": "float32", "filters": 128, "kernel_size": [3, 3], "strides": [1, 1], "padding": "same", "data_format": "channels_last", "dilation_rate": [1, 1], "activation": "linear", "use_bias": true, "kernel_initializer": {"class_name": "VarianceScaling", "config": {"scale": 2.0, "mode": "fan_in", "distribution": "truncated_normal", "seed": null}}, "bias_initializer": {"class_name": "Zeros", "config": {}}, "kernel_regularizer": null, "bias_regularizer": null, "activity_regularizer": null, "kernel_constraint": null, "bias_constraint": null}, "name": "res3c_branch2b", "inbound_nodes": [[["activation_163", 0, 0, {}]]]}, {"class_name": "BatchNormalization", "config": {"name": "bn3c_branch2b", "trainable": true, "dtype": "float32", "axis": [3], "momentum": 0.99, "epsilon": 0.001, "center": true, "scale": true, "beta_initializer": {"class_name": "Zeros", "config": {}}, "gamma_initializer": {"class_name": "Ones", "config": {}}, "moving_mean_initializer": {"class_name": "Zeros", "config": {}}, "moving_variance_initializer": {"class_name": "Ones", "config": {}}, "beta_regularizer": null, "gamma_regularizer": null, "beta_constraint": null, "gamma_constraint": null}, "name": "bn3c_branch2b", "inbound_nodes": [[["res3c_branch2b", 0, 0, {}]]]}, {"class_name": "Activation", "config": {"name": "activation_164", "trainable": true, "dtype": "float32", "activation": "relu"}, "name": "activation_164", "inbound_nodes": [[["bn3c_branch2b", 0, 0, {}]]]}, {"class_name": "Conv2D", "config": {"name": "res3c_branch2c", "trainable": true, "dtype": "float32", "filters": 512, "kernel_size": [1, 1], "strides": [1, 1], "padding": "valid", "data_format": "channels_last", "dilation_rate": [1, 1], "activation": "linear", "use_bias": true, "kernel_initializer": {"class_name": "VarianceScaling", "config": {"scale": 2.0, "mode": "fan_in", "distribution": "truncated_normal", "seed": null}}, "bias_initializer": {"class_name": "Zeros", "config": {}}, "kernel_regularizer": null, "bias_regularizer": null, "activity_regularizer": null, "kernel_constraint": null, "bias_constraint": null}, "name": "res3c_branch2c", "inbound_nodes": [[["activation_164", 0, 0, {}]]]}, {"class_name": "BatchNormalization", "config": {"name": "bn3c_branch2c", "trainable": true, "dtype": "float32", "axis": [3], "momentum": 0.99, "epsilon": 0.001, "center": true, "scale": true, "beta_initializer": {"class_name": "Zeros", "config": {}}, "gamma_initializer": {"class_name": "Ones", "config": {}}, "moving_mean_initializer": {"class_name": "Zeros", "config": {}}, "moving_variance_initializer": {"class_name": "Ones", "config": {}}, "beta_regularizer": null, "gamma_regularizer": null, "beta_constraint": null, "gamma_constraint": null}, "name": "bn3c_branch2c", "inbound_nodes": [[["res3c_branch2c", 0, 0, {}]]]}, {"class_name": "Add", "config": {"name": "add_53", "trainable": true, "dtype": "float32"}, "name": "add_53", "inbound_nodes": [[["bn3c_branch2c", 0, 0, {}], ["activation_162", 0, 0, {}]]]}, {"class_name": "Activation", "config": {"name": "activation_165", "trainable": true, "dtype": "float32", "activation": "relu"}, "name": "activation_165", "inbound_nodes": [[["add_53", 0, 0, {}]]]}, {"class_name": "Conv2D", "config": {"name": "res3d_branch2a", "trainable": true, "dtype": "float32", "filters": 128, "kernel_size": [1, 1], "strides": [1, 1], "padding": "valid", "data_format": "channels_last", "dilation_rate": [1, 1], "activation": "linear", "use_bias": true, "kernel_initializer": {"class_name": "VarianceScaling", "config": {"scale": 2.0, "mode": "fan_in", "distribution": "truncated_normal", "seed": null}}, "bias_initializer": {"class_name": "Zeros", "config": {}}, "kernel_regularizer": null, "bias_regularizer": null, "activity_regularizer": null, "kernel_constraint": null, "bias_constraint": null}, "name": "res3d_branch2a", "inbound_nodes": [[["activation_165", 0, 0, {}]]]}, {"class_name": "BatchNormalization", "config": {"name": "bn3d_branch2a", "trainable": true, "dtype": "float32", "axis": [3], "momentum": 0.99, "epsilon": 0.001, "center": true, "scale": true, "beta_initializer": {"class_name": "Zeros", "config": {}}, "gamma_initializer": {"class_name": "Ones", "config": {}}, "moving_mean_initializer": {"class_name": "Zeros", "config": {}}, "moving_variance_initializer": {"class_name": "Ones", "config": {}}, "beta_regularizer": null, "gamma_regularizer": null, "beta_constraint": null, "gamma_constraint": null}, "name": "bn3d_branch2a", "inbound_nodes": [[["res3d_branch2a", 0, 0, {}]]]}, {"class_name": "Activation", "config": {"name": "activation_166", "trainable": true, "dtype": "float32", "activation": "relu"}, "name": "activation_166", "inbound_nodes": [[["bn3d_branch2a", 0, 0, {}]]]}, {"class_name": "Conv2D", "config": {"name": "res3d_branch2b", "trainable": true, "dtype": "float32", "filters": 128, "kernel_size": [3, 3], "strides": [1, 1], "padding": "same", "data_format": "channels_last", "dilation_rate": [1, 1], "activation": "linear", "use_bias": true, "kernel_initializer": {"class_name": "VarianceScaling", "config": {"scale": 2.0, "mode": "fan_in", "distribution": "truncated_normal", "seed": null}}, "bias_initializer": {"class_name": "Zeros", "config": {}}, "kernel_regularizer": null, "bias_regularizer": null, "activity_regularizer": null, "kernel_constraint": null, "bias_constraint": null}, "name": "res3d_branch2b", "inbound_nodes": [[["activation_166", 0, 0, {}]]]}, {"class_name": "BatchNormalization", "config": {"name": "bn3d_branch2b", "trainable": true, "dtype": "float32", "axis": [3], "momentum": 0.99, "epsilon": 0.001, "center": true, "scale": true, "beta_initializer": {"class_name": "Zeros", "config": {}}, "gamma_initializer": {"class_name": "Ones", "config": {}}, "moving_mean_initializer": {"class_name": "Zeros", "config": {}}, "moving_variance_initializer": {"class_name": "Ones", "config": {}}, "beta_regularizer": null, "gamma_regularizer": null, "beta_constraint": null, "gamma_constraint": null}, "name": "bn3d_branch2b", "inbound_nodes": [[["res3d_branch2b", 0, 0, {}]]]}, {"class_name": "Activation", "config": {"name": "activation_167", "trainable": true, "dtype": "float32", "activation": "relu"}, "name": "activation_167", "inbound_nodes": [[["bn3d_branch2b", 0, 0, {}]]]}, {"class_name": "Conv2D", "config": {"name": "res3d_branch2c", "trainable": true, "dtype": "float32", "filters": 512, "kernel_size": [1, 1], "strides": [1, 1], "padding": "valid", "data_format": "channels_last", "dilation_rate": [1, 1], "activation": "linear", "use_bias": true, "kernel_initializer": {"class_name": "VarianceScaling", "config": {"scale": 2.0, "mode": "fan_in", "distribution": "truncated_normal", "seed": null}}, "bias_initializer": {"class_name": "Zeros", "config": {}}, "kernel_regularizer": null, "bias_regularizer": null, "activity_regularizer": null, "kernel_constraint": null, "bias_constraint": null}, "name": "res3d_branch2c", "inbound_nodes": [[["activation_167", 0, 0, {}]]]}, {"class_name": "BatchNormalization", "config": {"name": "bn3d_branch2c", "trainable": true, "dtype": "float32", "axis": [3], "momentum": 0.99, "epsilon": 0.001, "center": true, "scale": true, "beta_initializer": {"class_name": "Zeros", "config": {}}, "gamma_initializer": {"class_name": "Ones", "config": {}}, "moving_mean_initializer": {"class_name": "Zeros", "config": {}}, "moving_variance_initializer": {"class_name": "Ones", "config": {}}, "beta_regularizer": null, "gamma_regularizer": null, "beta_constraint": null, "gamma_constraint": null}, "name": "bn3d_branch2c", "inbound_nodes": [[["res3d_branch2c", 0, 0, {}]]]}, {"class_name": "Add", "config": {"name": "add_54", "trainable": true, "dtype": "float32"}, "name": "add_54", "inbound_nodes": [[["bn3d_branch2c", 0, 0, {}], ["activation_165", 0, 0, {}]]]}, {"class_name": "Activation", "config": {"name": "activation_168", "trainable": true, "dtype": "float32", "activation": "relu"}, "name": "activation_168", "inbound_nodes": [[["add_54", 0, 0, {}]]]}, {"class_name": "Conv2D", "config": {"name": "res4a_branch2a", "trainable": true, "dtype": "float32", "filters": 256, "kernel_size": [1, 1], "strides": [2, 2], "padding": "valid", "data_format": "channels_last", "dilation_rate": [1, 1], "activation": "linear", "use_bias": true, "kernel_initializer": {"class_name": "VarianceScaling", "config": {"scale": 2.0, "mode": "fan_in", "distribution": "truncated_normal", "seed": null}}, "bias_initializer": {"class_name": "Zeros", "config": {}}, "kernel_regularizer": null, "bias_regularizer": null, "activity_regularizer": null, "kernel_constraint": null, "bias_constraint": null}, "name": "res4a_branch2a", "inbound_nodes": [[["activation_168", 0, 0, {}]]]}, {"class_name": "BatchNormalization", "config": {"name": "bn4a_branch2a", "trainable": true, "dtype": "float32", "axis": [3], "momentum": 0.99, "epsilon": 0.001, "center": true, "scale": true, "beta_initializer": {"class_name": "Zeros", "config": {}}, "gamma_initializer": {"class_name": "Ones", "config": {}}, "moving_mean_initializer": {"class_name": "Zeros", "config": {}}, "moving_variance_initializer": {"class_name": "Ones", "config": {}}, "beta_regularizer": null, "gamma_regularizer": null, "beta_constraint": null, "gamma_constraint": null}, "name": "bn4a_branch2a", "inbound_nodes": [[["res4a_branch2a", 0, 0, {}]]]}, {"class_name": "Activation", "config": {"name": "activation_169", "trainable": true, "dtype": "float32", "activation": "relu"}, "name": "activation_169", "inbound_nodes": [[["bn4a_branch2a", 0, 0, {}]]]}, {"class_name": "Conv2D", "config": {"name": "res4a_branch2b", "trainable": true, "dtype": "float32", "filters": 256, "kernel_size": [3, 3], "strides": [1, 1], "padding": "same", "data_format": "channels_last", "dilation_rate": [1, 1], "activation": "linear", "use_bias": true, "kernel_initializer": {"class_name": "VarianceScaling", "config": {"scale": 2.0, "mode": "fan_in", "distribution": "truncated_normal", "seed": null}}, "bias_initializer": {"class_name": "Zeros", "config": {}}, "kernel_regularizer": null, "bias_regularizer": null, "activity_regularizer": null, "kernel_constraint": null, "bias_constraint": null}, "name": "res4a_branch2b", "inbound_nodes": [[["activation_169", 0, 0, {}]]]}, {"class_name": "BatchNormalization", "config": {"name": "bn4a_branch2b", "trainable": true, "dtype": "float32", "axis": [3], "momentum": 0.99, "epsilon": 0.001, "center": true, "scale": true, "beta_initializer": {"class_name": "Zeros", "config": {}}, "gamma_initializer": {"class_name": "Ones", "config": {}}, "moving_mean_initializer": {"class_name": "Zeros", "config": {}}, "moving_variance_initializer": {"class_name": "Ones", "config": {}}, "beta_regularizer": null, "gamma_regularizer": null, "beta_constraint": null, "gamma_constraint": null}, "name": "bn4a_branch2b", "inbound_nodes": [[["res4a_branch2b", 0, 0, {}]]]}, {"class_name": "Activation", "config": {"name": "activation_170", "trainable": true, "dtype": "float32", "activation": "relu"}, "name": "activation_170", "inbound_nodes": [[["bn4a_branch2b", 0, 0, {}]]]}, {"class_name": "Conv2D", "config": {"name": "res4a_branch2c", "trainable": true, "dtype": "float32", "filters": 1024, "kernel_size": [1, 1], "strides": [1, 1], "padding": "valid", "data_format": "channels_last", "dilation_rate": [1, 1], "activation": "linear", "use_bias": true, "kernel_initializer": {"class_name": "VarianceScaling", "config": {"scale": 2.0, "mode": "fan_in", "distribution": "truncated_normal", "seed": null}}, "bias_initializer": {"class_name": "Zeros", "config": {}}, "kernel_regularizer": null, "bias_regularizer": null, "activity_regularizer": null, "kernel_constraint": null, "bias_constraint": null}, "name": "res4a_branch2c", "inbound_nodes": [[["activation_170", 0, 0, {}]]]}, {"class_name": "Conv2D", "config": {"name": "res4a_branch1", "trainable": true, "dtype": "float32", "filters": 1024, "kernel_size": [1, 1], "strides": [2, 2], "padding": "valid", "data_format": "channels_last", "dilation_rate": [1, 1], "activation": "linear", "use_bias": true, "kernel_initializer": {"class_name": "VarianceScaling", "config": {"scale": 2.0, "mode": "fan_in", "distribution": "truncated_normal", "seed": null}}, "bias_initializer": {"class_name": "Zeros", "config": {}}, "kernel_regularizer": null, "bias_regularizer": null, "activity_regularizer": null, "kernel_constraint": null, "bias_constraint": null}, "name": "res4a_branch1", "inbound_nodes": [[["activation_168", 0, 0, {}]]]}, {"class_name": "BatchNormalization", "config": {"name": "bn4a_branch2c", "trainable": true, "dtype": "float32", "axis": [3], "momentum": 0.99, "epsilon": 0.001, "center": true, "scale": true, "beta_initializer": {"class_name": "Zeros", "config": {}}, "gamma_initializer": {"class_name": "Ones", "config": {}}, "moving_mean_initializer": {"class_name": "Zeros", "config": {}}, "moving_variance_initializer": {"class_name": "Ones", "config": {}}, "beta_regularizer": null, "gamma_regularizer": null, "beta_constraint": null, "gamma_constraint": null}, "name": "bn4a_branch2c", "inbound_nodes": [[["res4a_branch2c", 0, 0, {}]]]}, {"class_name": "BatchNormalization", "config": {"name": "bn4a_branch1", "trainable": true, "dtype": "float32", "axis": [3], "momentum": 0.99, "epsilon": 0.001, "center": true, "scale": true, "beta_initializer": {"class_name": "Zeros", "config": {}}, "gamma_initializer": {"class_name": "Ones", "config": {}}, "moving_mean_initializer": {"class_name": "Zeros", "config": {}}, "moving_variance_initializer": {"class_name": "Ones", "config": {}}, "beta_regularizer": null, "gamma_regularizer": null, "beta_constraint": null, "gamma_constraint": null}, "name": "bn4a_branch1", "inbound_nodes": [[["res4a_branch1", 0, 0, {}]]]}, {"class_name": "Add", "config": {"name": "add_55", "trainable": true, "dtype": "float32"}, "name": "add_55", "inbound_nodes": [[["bn4a_branch2c", 0, 0, {}], ["bn4a_branch1", 0, 0, {}]]]}, {"class_name": "Activation", "config": {"name": "activation_171", "trainable": true, "dtype": "float32", "activation": "relu"}, "name": "activation_171", "inbound_nodes": [[["add_55", 0, 0, {}]]]}, {"class_name": "Conv2D", "config": {"name": "res4b_branch2a", "trainable": true, "dtype": "float32", "filters": 256, "kernel_size": [1, 1], "strides": [1, 1], "padding": "valid", "data_format": "channels_last", "dilation_rate": [1, 1], "activation": "linear", "use_bias": true, "kernel_initializer": {"class_name": "VarianceScaling", "config": {"scale": 2.0, "mode": "fan_in", "distribution": "truncated_normal", "seed": null}}, "bias_initializer": {"class_name": "Zeros", "config": {}}, "kernel_regularizer": null, "bias_regularizer": null, "activity_regularizer": null, "kernel_constraint": null, "bias_constraint": null}, "name": "res4b_branch2a", "inbound_nodes": [[["activation_171", 0, 0, {}]]]}, {"class_name": "BatchNormalization", "config": {"name": "bn4b_branch2a", "trainable": true, "dtype": "float32", "axis": [3], "momentum": 0.99, "epsilon": 0.001, "center": true, "scale": true, "beta_initializer": {"class_name": "Zeros", "config": {}}, "gamma_initializer": {"class_name": "Ones", "config": {}}, "moving_mean_initializer": {"class_name": "Zeros", "config": {}}, "moving_variance_initializer": {"class_name": "Ones", "config": {}}, "beta_regularizer": null, "gamma_regularizer": null, "beta_constraint": null, "gamma_constraint": null}, "name": "bn4b_branch2a", "inbound_nodes": [[["res4b_branch2a", 0, 0, {}]]]}, {"class_name": "Activation", "config": {"name": "activation_172", "trainable": true, "dtype": "float32", "activation": "relu"}, "name": "activation_172", "inbound_nodes": [[["bn4b_branch2a", 0, 0, {}]]]}, {"class_name": "Conv2D", "config": {"name": "res4b_branch2b", "trainable": true, "dtype": "float32", "filters": 256, "kernel_size": [3, 3], "strides": [1, 1], "padding": "same", "data_format": "channels_last", "dilation_rate": [1, 1], "activation": "linear", "use_bias": true, "kernel_initializer": {"class_name": "VarianceScaling", "config": {"scale": 2.0, "mode": "fan_in", "distribution": "truncated_normal", "seed": null}}, "bias_initializer": {"class_name": "Zeros", "config": {}}, "kernel_regularizer": null, "bias_regularizer": null, "activity_regularizer": null, "kernel_constraint": null, "bias_constraint": null}, "name": "res4b_branch2b", "inbound_nodes": [[["activation_172", 0, 0, {}]]]}, {"class_name": "BatchNormalization", "config": {"name": "bn4b_branch2b", "trainable": true, "dtype": "float32", "axis": [3], "momentum": 0.99, "epsilon": 0.001, "center": true, "scale": true, "beta_initializer": {"class_name": "Zeros", "config": {}}, "gamma_initializer": {"class_name": "Ones", "config": {}}, "moving_mean_initializer": {"class_name": "Zeros", "config": {}}, "moving_variance_initializer": {"class_name": "Ones", "config": {}}, "beta_regularizer": null, "gamma_regularizer": null, "beta_constraint": null, "gamma_constraint": null}, "name": "bn4b_branch2b", "inbound_nodes": [[["res4b_branch2b", 0, 0, {}]]]}, {"class_name": "Activation", "config": {"name": "activation_173", "trainable": true, "dtype": "float32", "activation": "relu"}, "name": "activation_173", "inbound_nodes": [[["bn4b_branch2b", 0, 0, {}]]]}, {"class_name": "Conv2D", "config": {"name": "res4b_branch2c", "trainable": true, "dtype": "float32", "filters": 1024, "kernel_size": [1, 1], "strides": [1, 1], "padding": "valid", "data_format": "channels_last", "dilation_rate": [1, 1], "activation": "linear", "use_bias": true, "kernel_initializer": {"class_name": "VarianceScaling", "config": {"scale": 2.0, "mode": "fan_in", "distribution": "truncated_normal", "seed": null}}, "bias_initializer": {"class_name": "Zeros", "config": {}}, "kernel_regularizer": null, "bias_regularizer": null, "activity_regularizer": null, "kernel_constraint": null, "bias_constraint": null}, "name": "res4b_branch2c", "inbound_nodes": [[["activation_173", 0, 0, {}]]]}, {"class_name": "BatchNormalization", "config": {"name": "bn4b_branch2c", "trainable": true, "dtype": "float32", "axis": [3], "momentum": 0.99, "epsilon": 0.001, "center": true, "scale": true, "beta_initializer": {"class_name": "Zeros", "config": {}}, "gamma_initializer": {"class_name": "Ones", "config": {}}, "moving_mean_initializer": {"class_name": "Zeros", "config": {}}, "moving_variance_initializer": {"class_name": "Ones", "config": {}}, "beta_regularizer": null, "gamma_regularizer": null, "beta_constraint": null, "gamma_constraint": null}, "name": "bn4b_branch2c", "inbound_nodes": [[["res4b_branch2c", 0, 0, {}]]]}, {"class_name": "Add", "config": {"name": "add_56", "trainable": true, "dtype": "float32"}, "name": "add_56", "inbound_nodes": [[["bn4b_branch2c", 0, 0, {}], ["activation_171", 0, 0, {}]]]}, {"class_name": "Activation", "config": {"name": "activation_174", "trainable": true, "dtype": "float32", "activation": "relu"}, "name": "activation_174", "inbound_nodes": [[["add_56", 0, 0, {}]]]}, {"class_name": "Conv2D", "config": {"name": "res4c_branch2a", "trainable": true, "dtype": "float32", "filters": 256, "kernel_size": [1, 1], "strides": [1, 1], "padding": "valid", "data_format": "channels_last", "dilation_rate": [1, 1], "activation": "linear", "use_bias": true, "kernel_initializer": {"class_name": "VarianceScaling", "config": {"scale": 2.0, "mode": "fan_in", "distribution": "truncated_normal", "seed": null}}, "bias_initializer": {"class_name": "Zeros", "config": {}}, "kernel_regularizer": null, "bias_regularizer": null, "activity_regularizer": null, "kernel_constraint": null, "bias_constraint": null}, "name": "res4c_branch2a", "inbound_nodes": [[["activation_174", 0, 0, {}]]]}, {"class_name": "BatchNormalization", "config": {"name": "bn4c_branch2a", "trainable": true, "dtype": "float32", "axis": [3], "momentum": 0.99, "epsilon": 0.001, "center": true, "scale": true, "beta_initializer": {"class_name": "Zeros", "config": {}}, "gamma_initializer": {"class_name": "Ones", "config": {}}, "moving_mean_initializer": {"class_name": "Zeros", "config": {}}, "moving_variance_initializer": {"class_name": "Ones", "config": {}}, "beta_regularizer": null, "gamma_regularizer": null, "beta_constraint": null, "gamma_constraint": null}, "name": "bn4c_branch2a", "inbound_nodes": [[["res4c_branch2a", 0, 0, {}]]]}, {"class_name": "Activation", "config": {"name": "activation_175", "trainable": true, "dtype": "float32", "activation": "relu"}, "name": "activation_175", "inbound_nodes": [[["bn4c_branch2a", 0, 0, {}]]]}, {"class_name": "Conv2D", "config": {"name": "res4c_branch2b", "trainable": true, "dtype": "float32", "filters": 256, "kernel_size": [3, 3], "strides": [1, 1], "padding": "same", "data_format": "channels_last", "dilation_rate": [1, 1], "activation": "linear", "use_bias": true, "kernel_initializer": {"class_name": "VarianceScaling", "config": {"scale": 2.0, "mode": "fan_in", "distribution": "truncated_normal", "seed": null}}, "bias_initializer": {"class_name": "Zeros", "config": {}}, "kernel_regularizer": null, "bias_regularizer": null, "activity_regularizer": null, "kernel_constraint": null, "bias_constraint": null}, "name": "res4c_branch2b", "inbound_nodes": [[["activation_175", 0, 0, {}]]]}, {"class_name": "BatchNormalization", "config": {"name": "bn4c_branch2b", "trainable": true, "dtype": "float32", "axis": [3], "momentum": 0.99, "epsilon": 0.001, "center": true, "scale": true, "beta_initializer": {"class_name": "Zeros", "config": {}}, "gamma_initializer": {"class_name": "Ones", "config": {}}, "moving_mean_initializer": {"class_name": "Zeros", "config": {}}, "moving_variance_initializer": {"class_name": "Ones", "config": {}}, "beta_regularizer": null, "gamma_regularizer": null, "beta_constraint": null, "gamma_constraint": null}, "name": "bn4c_branch2b", "inbound_nodes": [[["res4c_branch2b", 0, 0, {}]]]}, {"class_name": "Activation", "config": {"name": "activation_176", "trainable": true, "dtype": "float32", "activation": "relu"}, "name": "activation_176", "inbound_nodes": [[["bn4c_branch2b", 0, 0, {}]]]}, {"class_name": "Conv2D", "config": {"name": "res4c_branch2c", "trainable": true, "dtype": "float32", "filters": 1024, "kernel_size": [1, 1], "strides": [1, 1], "padding": "valid", "data_format": "channels_last", "dilation_rate": [1, 1], "activation": "linear", "use_bias": true, "kernel_initializer": {"class_name": "VarianceScaling", "config": {"scale": 2.0, "mode": "fan_in", "distribution": "truncated_normal", "seed": null}}, "bias_initializer": {"class_name": "Zeros", "config": {}}, "kernel_regularizer": null, "bias_regularizer": null, "activity_regularizer": null, "kernel_constraint": null, "bias_constraint": null}, "name": "res4c_branch2c", "inbound_nodes": [[["activation_176", 0, 0, {}]]]}, {"class_name": "BatchNormalization", "config": {"name": "bn4c_branch2c", "trainable": true, "dtype": "float32", "axis": [3], "momentum": 0.99, "epsilon": 0.001, "center": true, "scale": true, "beta_initializer": {"class_name": "Zeros", "config": {}}, "gamma_initializer": {"class_name": "Ones", "config": {}}, "moving_mean_initializer": {"class_name": "Zeros", "config": {}}, "moving_variance_initializer": {"class_name": "Ones", "config": {}}, "beta_regularizer": null, "gamma_regularizer": null, "beta_constraint": null, "gamma_constraint": null}, "name": "bn4c_branch2c", "inbound_nodes": [[["res4c_branch2c", 0, 0, {}]]]}, {"class_name": "Add", "config": {"name": "add_57", "trainable": true, "dtype": "float32"}, "name": "add_57", "inbound_nodes": [[["bn4c_branch2c", 0, 0, {}], ["activation_174", 0, 0, {}]]]}, {"class_name": "Activation", "config": {"name": "activation_177", "trainable": true, "dtype": "float32", "activation": "relu"}, "name": "activation_177", "inbound_nodes": [[["add_57", 0, 0, {}]]]}, {"class_name": "Conv2D", "config": {"name": "res4d_branch2a", "trainable": true, "dtype": "float32", "filters": 256, "kernel_size": [1, 1], "strides": [1, 1], "padding": "valid", "data_format": "channels_last", "dilation_rate": [1, 1], "activation": "linear", "use_bias": true, "kernel_initializer": {"class_name": "VarianceScaling", "config": {"scale": 2.0, "mode": "fan_in", "distribution": "truncated_normal", "seed": null}}, "bias_initializer": {"class_name": "Zeros", "config": {}}, "kernel_regularizer": null, "bias_regularizer": null, "activity_regularizer": null, "kernel_constraint": null, "bias_constraint": null}, "name": "res4d_branch2a", "inbound_nodes": [[["activation_177", 0, 0, {}]]]}, {"class_name": "BatchNormalization", "config": {"name": "bn4d_branch2a", "trainable": true, "dtype": "float32", "axis": [3], "momentum": 0.99, "epsilon": 0.001, "center": true, "scale": true, "beta_initializer": {"class_name": "Zeros", "config": {}}, "gamma_initializer": {"class_name": "Ones", "config": {}}, "moving_mean_initializer": {"class_name": "Zeros", "config": {}}, "moving_variance_initializer": {"class_name": "Ones", "config": {}}, "beta_regularizer": null, "gamma_regularizer": null, "beta_constraint": null, "gamma_constraint": null}, "name": "bn4d_branch2a", "inbound_nodes": [[["res4d_branch2a", 0, 0, {}]]]}, {"class_name": "Activation", "config": {"name": "activation_178", "trainable": true, "dtype": "float32", "activation": "relu"}, "name": "activation_178", "inbound_nodes": [[["bn4d_branch2a", 0, 0, {}]]]}, {"class_name": "Conv2D", "config": {"name": "res4d_branch2b", "trainable": true, "dtype": "float32", "filters": 256, "kernel_size": [3, 3], "strides": [1, 1], "padding": "same", "data_format": "channels_last", "dilation_rate": [1, 1], "activation": "linear", "use_bias": true, "kernel_initializer": {"class_name": "VarianceScaling", "config": {"scale": 2.0, "mode": "fan_in", "distribution": "truncated_normal", "seed": null}}, "bias_initializer": {"class_name": "Zeros", "config": {}}, "kernel_regularizer": null, "bias_regularizer": null, "activity_regularizer": null, "kernel_constraint": null, "bias_constraint": null}, "name": "res4d_branch2b", "inbound_nodes": [[["activation_178", 0, 0, {}]]]}, {"class_name": "BatchNormalization", "config": {"name": "bn4d_branch2b", "trainable": true, "dtype": "float32", "axis": [3], "momentum": 0.99, "epsilon": 0.001, "center": true, "scale": true, "beta_initializer": {"class_name": "Zeros", "config": {}}, "gamma_initializer": {"class_name": "Ones", "config": {}}, "moving_mean_initializer": {"class_name": "Zeros", "config": {}}, "moving_variance_initializer": {"class_name": "Ones", "config": {}}, "beta_regularizer": null, "gamma_regularizer": null, "beta_constraint": null, "gamma_constraint": null}, "name": "bn4d_branch2b", "inbound_nodes": [[["res4d_branch2b", 0, 0, {}]]]}, {"class_name": "Activation", "config": {"name": "activation_179", "trainable": true, "dtype": "float32", "activation": "relu"}, "name": "activation_179", "inbound_nodes": [[["bn4d_branch2b", 0, 0, {}]]]}, {"class_name": "Conv2D", "config": {"name": "res4d_branch2c", "trainable": true, "dtype": "float32", "filters": 1024, "kernel_size": [1, 1], "strides": [1, 1], "padding": "valid", "data_format": "channels_last", "dilation_rate": [1, 1], "activation": "linear", "use_bias": true, "kernel_initializer": {"class_name": "VarianceScaling", "config": {"scale": 2.0, "mode": "fan_in", "distribution": "truncated_normal", "seed": null}}, "bias_initializer": {"class_name": "Zeros", "config": {}}, "kernel_regularizer": null, "bias_regularizer": null, "activity_regularizer": null, "kernel_constraint": null, "bias_constraint": null}, "name": "res4d_branch2c", "inbound_nodes": [[["activation_179", 0, 0, {}]]]}, {"class_name": "BatchNormalization", "config": {"name": "bn4d_branch2c", "trainable": true, "dtype": "float32", "axis": [3], "momentum": 0.99, "epsilon": 0.001, "center": true, "scale": true, "beta_initializer": {"class_name": "Zeros", "config": {}}, "gamma_initializer": {"class_name": "Ones", "config": {}}, "moving_mean_initializer": {"class_name": "Zeros", "config": {}}, "moving_variance_initializer": {"class_name": "Ones", "config": {}}, "beta_regularizer": null, "gamma_regularizer": null, "beta_constraint": null, "gamma_constraint": null}, "name": "bn4d_branch2c", "inbound_nodes": [[["res4d_branch2c", 0, 0, {}]]]}, {"class_name": "Add", "config": {"name": "add_58", "trainable": true, "dtype": "float32"}, "name": "add_58", "inbound_nodes": [[["bn4d_branch2c", 0, 0, {}], ["activation_177", 0, 0, {}]]]}, {"class_name": "Activation", "config": {"name": "activation_180", "trainable": true, "dtype": "float32", "activation": "relu"}, "name": "activation_180", "inbound_nodes": [[["add_58", 0, 0, {}]]]}, {"class_name": "Conv2D", "config": {"name": "res4e_branch2a", "trainable": true, "dtype": "float32", "filters": 256, "kernel_size": [1, 1], "strides": [1, 1], "padding": "valid", "data_format": "channels_last", "dilation_rate": [1, 1], "activation": "linear", "use_bias": true, "kernel_initializer": {"class_name": "VarianceScaling", "config": {"scale": 2.0, "mode": "fan_in", "distribution": "truncated_normal", "seed": null}}, "bias_initializer": {"class_name": "Zeros", "config": {}}, "kernel_regularizer": null, "bias_regularizer": null, "activity_regularizer": null, "kernel_constraint": null, "bias_constraint": null}, "name": "res4e_branch2a", "inbound_nodes": [[["activation_180", 0, 0, {}]]]}, {"class_name": "BatchNormalization", "config": {"name": "bn4e_branch2a", "trainable": true, "dtype": "float32", "axis": [3], "momentum": 0.99, "epsilon": 0.001, "center": true, "scale": true, "beta_initializer": {"class_name": "Zeros", "config": {}}, "gamma_initializer": {"class_name": "Ones", "config": {}}, "moving_mean_initializer": {"class_name": "Zeros", "config": {}}, "moving_variance_initializer": {"class_name": "Ones", "config": {}}, "beta_regularizer": null, "gamma_regularizer": null, "beta_constraint": null, "gamma_constraint": null}, "name": "bn4e_branch2a", "inbound_nodes": [[["res4e_branch2a", 0, 0, {}]]]}, {"class_name": "Activation", "config": {"name": "activation_181", "trainable": true, "dtype": "float32", "activation": "relu"}, "name": "activation_181", "inbound_nodes": [[["bn4e_branch2a", 0, 0, {}]]]}, {"class_name": "Conv2D", "config": {"name": "res4e_branch2b", "trainable": true, "dtype": "float32", "filters": 256, "kernel_size": [3, 3], "strides": [1, 1], "padding": "same", "data_format": "channels_last", "dilation_rate": [1, 1], "activation": "linear", "use_bias": true, "kernel_initializer": {"class_name": "VarianceScaling", "config": {"scale": 2.0, "mode": "fan_in", "distribution": "truncated_normal", "seed": null}}, "bias_initializer": {"class_name": "Zeros", "config": {}}, "kernel_regularizer": null, "bias_regularizer": null, "activity_regularizer": null, "kernel_constraint": null, "bias_constraint": null}, "name": "res4e_branch2b", "inbound_nodes": [[["activation_181", 0, 0, {}]]]}, {"class_name": "BatchNormalization", "config": {"name": "bn4e_branch2b", "trainable": true, "dtype": "float32", "axis": [3], "momentum": 0.99, "epsilon": 0.001, "center": true, "scale": true, "beta_initializer": {"class_name": "Zeros", "config": {}}, "gamma_initializer": {"class_name": "Ones", "config": {}}, "moving_mean_initializer": {"class_name": "Zeros", "config": {}}, "moving_variance_initializer": {"class_name": "Ones", "config": {}}, "beta_regularizer": null, "gamma_regularizer": null, "beta_constraint": null, "gamma_constraint": null}, "name": "bn4e_branch2b", "inbound_nodes": [[["res4e_branch2b", 0, 0, {}]]]}, {"class_name": "Activation", "config": {"name": "activation_182", "trainable": true, "dtype": "float32", "activation": "relu"}, "name": "activation_182", "inbound_nodes": [[["bn4e_branch2b", 0, 0, {}]]]}, {"class_name": "Conv2D", "config": {"name": "res4e_branch2c", "trainable": true, "dtype": "float32", "filters": 1024, "kernel_size": [1, 1], "strides": [1, 1], "padding": "valid", "data_format": "channels_last", "dilation_rate": [1, 1], "activation": "linear", "use_bias": true, "kernel_initializer": {"class_name": "VarianceScaling", "config": {"scale": 2.0, "mode": "fan_in", "distribution": "truncated_normal", "seed": null}}, "bias_initializer": {"class_name": "Zeros", "config": {}}, "kernel_regularizer": null, "bias_regularizer": null, "activity_regularizer": null, "kernel_constraint": null, "bias_constraint": null}, "name": "res4e_branch2c", "inbound_nodes": [[["activation_182", 0, 0, {}]]]}, {"class_name": "BatchNormalization", "config": {"name": "bn4e_branch2c", "trainable": true, "dtype": "float32", "axis": [3], "momentum": 0.99, "epsilon": 0.001, "center": true, "scale": true, "beta_initializer": {"class_name": "Zeros", "config": {}}, "gamma_initializer": {"class_name": "Ones", "config": {}}, "moving_mean_initializer": {"class_name": "Zeros", "config": {}}, "moving_variance_initializer": {"class_name": "Ones", "config": {}}, "beta_regularizer": null, "gamma_regularizer": null, "beta_constraint": null, "gamma_constraint": null}, "name": "bn4e_branch2c", "inbound_nodes": [[["res4e_branch2c", 0, 0, {}]]]}, {"class_name": "Add", "config": {"name": "add_59", "trainable": true, "dtype": "float32"}, "name": "add_59", "inbound_nodes": [[["bn4e_branch2c", 0, 0, {}], ["activation_180", 0, 0, {}]]]}, {"class_name": "Activation", "config": {"name": "activation_183", "trainable": true, "dtype": "float32", "activation": "relu"}, "name": "activation_183", "inbound_nodes": [[["add_59", 0, 0, {}]]]}, {"class_name": "Conv2D", "config": {"name": "res4f_branch2a", "trainable": true, "dtype": "float32", "filters": 256, "kernel_size": [1, 1], "strides": [1, 1], "padding": "valid", "data_format": "channels_last", "dilation_rate": [1, 1], "activation": "linear", "use_bias": true, "kernel_initializer": {"class_name": "VarianceScaling", "config": {"scale": 2.0, "mode": "fan_in", "distribution": "truncated_normal", "seed": null}}, "bias_initializer": {"class_name": "Zeros", "config": {}}, "kernel_regularizer": null, "bias_regularizer": null, "activity_regularizer": null, "kernel_constraint": null, "bias_constraint": null}, "name": "res4f_branch2a", "inbound_nodes": [[["activation_183", 0, 0, {}]]]}, {"class_name": "BatchNormalization", "config": {"name": "bn4f_branch2a", "trainable": true, "dtype": "float32", "axis": [3], "momentum": 0.99, "epsilon": 0.001, "center": true, "scale": true, "beta_initializer": {"class_name": "Zeros", "config": {}}, "gamma_initializer": {"class_name": "Ones", "config": {}}, "moving_mean_initializer": {"class_name": "Zeros", "config": {}}, "moving_variance_initializer": {"class_name": "Ones", "config": {}}, "beta_regularizer": null, "gamma_regularizer": null, "beta_constraint": null, "gamma_constraint": null}, "name": "bn4f_branch2a", "inbound_nodes": [[["res4f_branch2a", 0, 0, {}]]]}, {"class_name": "Activation", "config": {"name": "activation_184", "trainable": true, "dtype": "float32", "activation": "relu"}, "name": "activation_184", "inbound_nodes": [[["bn4f_branch2a", 0, 0, {}]]]}, {"class_name": "Conv2D", "config": {"name": "res4f_branch2b", "trainable": true, "dtype": "float32", "filters": 256, "kernel_size": [3, 3], "strides": [1, 1], "padding": "same", "data_format": "channels_last", "dilation_rate": [1, 1], "activation": "linear", "use_bias": true, "kernel_initializer": {"class_name": "VarianceScaling", "config": {"scale": 2.0, "mode": "fan_in", "distribution": "truncated_normal", "seed": null}}, "bias_initializer": {"class_name": "Zeros", "config": {}}, "kernel_regularizer": null, "bias_regularizer": null, "activity_regularizer": null, "kernel_constraint": null, "bias_constraint": null}, "name": "res4f_branch2b", "inbound_nodes": [[["activation_184", 0, 0, {}]]]}, {"class_name": "BatchNormalization", "config": {"name": "bn4f_branch2b", "trainable": true, "dtype": "float32", "axis": [3], "momentum": 0.99, "epsilon": 0.001, "center": true, "scale": true, "beta_initializer": {"class_name": "Zeros", "config": {}}, "gamma_initializer": {"class_name": "Ones", "config": {}}, "moving_mean_initializer": {"class_name": "Zeros", "config": {}}, "moving_variance_initializer": {"class_name": "Ones", "config": {}}, "beta_regularizer": null, "gamma_regularizer": null, "beta_constraint": null, "gamma_constraint": null}, "name": "bn4f_branch2b", "inbound_nodes": [[["res4f_branch2b", 0, 0, {}]]]}, {"class_name": "Activation", "config": {"name": "activation_185", "trainable": true, "dtype": "float32", "activation": "relu"}, "name": "activation_185", "inbound_nodes": [[["bn4f_branch2b", 0, 0, {}]]]}, {"class_name": "Conv2D", "config": {"name": "res4f_branch2c", "trainable": true, "dtype": "float32", "filters": 1024, "kernel_size": [1, 1], "strides": [1, 1], "padding": "valid", "data_format": "channels_last", "dilation_rate": [1, 1], "activation": "linear", "use_bias": true, "kernel_initializer": {"class_name": "VarianceScaling", "config": {"scale": 2.0, "mode": "fan_in", "distribution": "truncated_normal", "seed": null}}, "bias_initializer": {"class_name": "Zeros", "config": {}}, "kernel_regularizer": null, "bias_regularizer": null, "activity_regularizer": null, "kernel_constraint": null, "bias_constraint": null}, "name": "res4f_branch2c", "inbound_nodes": [[["activation_185", 0, 0, {}]]]}, {"class_name": "BatchNormalization", "config": {"name": "bn4f_branch2c", "trainable": true, "dtype": "float32", "axis": [3], "momentum": 0.99, "epsilon": 0.001, "center": true, "scale": true, "beta_initializer": {"class_name": "Zeros", "config": {}}, "gamma_initializer": {"class_name": "Ones", "config": {}}, "moving_mean_initializer": {"class_name": "Zeros", "config": {}}, "moving_variance_initializer": {"class_name": "Ones", "config": {}}, "beta_regularizer": null, "gamma_regularizer": null, "beta_constraint": null, "gamma_constraint": null}, "name": "bn4f_branch2c", "inbound_nodes": [[["res4f_branch2c", 0, 0, {}]]]}, {"class_name": "Add", "config": {"name": "add_60", "trainable": true, "dtype": "float32"}, "name": "add_60", "inbound_nodes": [[["bn4f_branch2c", 0, 0, {}], ["activation_183", 0, 0, {}]]]}, {"class_name": "Activation", "config": {"name": "activation_186", "trainable": true, "dtype": "float32", "activation": "relu"}, "name": "activation_186", "inbound_nodes": [[["add_60", 0, 0, {}]]]}, {"class_name": "Conv2D", "config": {"name": "res5a_branch2a", "trainable": true, "dtype": "float32", "filters": 512, "kernel_size": [1, 1], "strides": [2, 2], "padding": "valid", "data_format": "channels_last", "dilation_rate": [1, 1], "activation": "linear", "use_bias": true, "kernel_initializer": {"class_name": "VarianceScaling", "config": {"scale": 2.0, "mode": "fan_in", "distribution": "truncated_normal", "seed": null}}, "bias_initializer": {"class_name": "Zeros", "config": {}}, "kernel_regularizer": null, "bias_regularizer": null, "activity_regularizer": null, "kernel_constraint": null, "bias_constraint": null}, "name": "res5a_branch2a", "inbound_nodes": [[["activation_186", 0, 0, {}]]]}, {"class_name": "BatchNormalization", "config": {"name": "bn5a_branch2a", "trainable": true, "dtype": "float32", "axis": [3], "momentum": 0.99, "epsilon": 0.001, "center": true, "scale": true, "beta_initializer": {"class_name": "Zeros", "config": {}}, "gamma_initializer": {"class_name": "Ones", "config": {}}, "moving_mean_initializer": {"class_name": "Zeros", "config": {}}, "moving_variance_initializer": {"class_name": "Ones", "config": {}}, "beta_regularizer": null, "gamma_regularizer": null, "beta_constraint": null, "gamma_constraint": null}, "name": "bn5a_branch2a", "inbound_nodes": [[["res5a_branch2a", 0, 0, {}]]]}, {"class_name": "Activation", "config": {"name": "activation_187", "trainable": true, "dtype": "float32", "activation": "relu"}, "name": "activation_187", "inbound_nodes": [[["bn5a_branch2a", 0, 0, {}]]]}, {"class_name": "Conv2D", "config": {"name": "res5a_branch2b", "trainable": true, "dtype": "float32", "filters": 512, "kernel_size": [3, 3], "strides": [1, 1], "padding": "same", "data_format": "channels_last", "dilation_rate": [1, 1], "activation": "linear", "use_bias": true, "kernel_initializer": {"class_name": "VarianceScaling", "config": {"scale": 2.0, "mode": "fan_in", "distribution": "truncated_normal", "seed": null}}, "bias_initializer": {"class_name": "Zeros", "config": {}}, "kernel_regularizer": null, "bias_regularizer": null, "activity_regularizer": null, "kernel_constraint": null, "bias_constraint": null}, "name": "res5a_branch2b", "inbound_nodes": [[["activation_187", 0, 0, {}]]]}, {"class_name": "BatchNormalization", "config": {"name": "bn5a_branch2b", "trainable": true, "dtype": "float32", "axis": [3], "momentum": 0.99, "epsilon": 0.001, "center": true, "scale": true, "beta_initializer": {"class_name": "Zeros", "config": {}}, "gamma_initializer": {"class_name": "Ones", "config": {}}, "moving_mean_initializer": {"class_name": "Zeros", "config": {}}, "moving_variance_initializer": {"class_name": "Ones", "config": {}}, "beta_regularizer": null, "gamma_regularizer": null, "beta_constraint": null, "gamma_constraint": null}, "name": "bn5a_branch2b", "inbound_nodes": [[["res5a_branch2b", 0, 0, {}]]]}, {"class_name": "Activation", "config": {"name": "activation_188", "trainable": true, "dtype": "float32", "activation": "relu"}, "name": "activation_188", "inbound_nodes": [[["bn5a_branch2b", 0, 0, {}]]]}, {"class_name": "Conv2D", "config": {"name": "res5a_branch2c", "trainable": true, "dtype": "float32", "filters": 2048, "kernel_size": [1, 1], "strides": [1, 1], "padding": "valid", "data_format": "channels_last", "dilation_rate": [1, 1], "activation": "linear", "use_bias": true, "kernel_initializer": {"class_name": "VarianceScaling", "config": {"scale": 2.0, "mode": "fan_in", "distribution": "truncated_normal", "seed": null}}, "bias_initializer": {"class_name": "Zeros", "config": {}}, "kernel_regularizer": null, "bias_regularizer": null, "activity_regularizer": null, "kernel_constraint": null, "bias_constraint": null}, "name": "res5a_branch2c", "inbound_nodes": [[["activation_188", 0, 0, {}]]]}, {"class_name": "Conv2D", "config": {"name": "res5a_branch1", "trainable": true, "dtype": "float32", "filters": 2048, "kernel_size": [1, 1], "strides": [2, 2], "padding": "valid", "data_format": "channels_last", "dilation_rate": [1, 1], "activation": "linear", "use_bias": true, "kernel_initializer": {"class_name": "VarianceScaling", "config": {"scale": 2.0, "mode": "fan_in", "distribution": "truncated_normal", "seed": null}}, "bias_initializer": {"class_name": "Zeros", "config": {}}, "kernel_regularizer": null, "bias_regularizer": null, "activity_regularizer": null, "kernel_constraint": null, "bias_constraint": null}, "name": "res5a_branch1", "inbound_nodes": [[["activation_186", 0, 0, {}]]]}, {"class_name": "BatchNormalization", "config": {"name": "bn5a_branch2c", "trainable": true, "dtype": "float32", "axis": [3], "momentum": 0.99, "epsilon": 0.001, "center": true, "scale": true, "beta_initializer": {"class_name": "Zeros", "config": {}}, "gamma_initializer": {"class_name": "Ones", "config": {}}, "moving_mean_initializer": {"class_name": "Zeros", "config": {}}, "moving_variance_initializer": {"class_name": "Ones", "config": {}}, "beta_regularizer": null, "gamma_regularizer": null, "beta_constraint": null, "gamma_constraint": null}, "name": "bn5a_branch2c", "inbound_nodes": [[["res5a_branch2c", 0, 0, {}]]]}, {"class_name": "BatchNormalization", "config": {"name": "bn5a_branch1", "trainable": true, "dtype": "float32", "axis": [3], "momentum": 0.99, "epsilon": 0.001, "center": true, "scale": true, "beta_initializer": {"class_name": "Zeros", "config": {}}, "gamma_initializer": {"class_name": "Ones", "config": {}}, "moving_mean_initializer": {"class_name": "Zeros", "config": {}}, "moving_variance_initializer": {"class_name": "Ones", "config": {}}, "beta_regularizer": null, "gamma_regularizer": null, "beta_constraint": null, "gamma_constraint": null}, "name": "bn5a_branch1", "inbound_nodes": [[["res5a_branch1", 0, 0, {}]]]}, {"class_name": "Add", "config": {"name": "add_61", "trainable": true, "dtype": "float32"}, "name": "add_61", "inbound_nodes": [[["bn5a_branch2c", 0, 0, {}], ["bn5a_branch1", 0, 0, {}]]]}, {"class_name": "Activation", "config": {"name": "activation_189", "trainable": true, "dtype": "float32", "activation": "relu"}, "name": "activation_189", "inbound_nodes": [[["add_61", 0, 0, {}]]]}, {"class_name": "Conv2D", "config": {"name": "res5b_branch2a", "trainable": true, "dtype": "float32", "filters": 512, "kernel_size": [1, 1], "strides": [1, 1], "padding": "valid", "data_format": "channels_last", "dilation_rate": [1, 1], "activation": "linear", "use_bias": true, "kernel_initializer": {"class_name": "VarianceScaling", "config": {"scale": 2.0, "mode": "fan_in", "distribution": "truncated_normal", "seed": null}}, "bias_initializer": {"class_name": "Zeros", "config": {}}, "kernel_regularizer": null, "bias_regularizer": null, "activity_regularizer": null, "kernel_constraint": null, "bias_constraint": null}, "name": "res5b_branch2a", "inbound_nodes": [[["activation_189", 0, 0, {}]]]}, {"class_name": "BatchNormalization", "config": {"name": "bn5b_branch2a", "trainable": true, "dtype": "float32", "axis": [3], "momentum": 0.99, "epsilon": 0.001, "center": true, "scale": true, "beta_initializer": {"class_name": "Zeros", "config": {}}, "gamma_initializer": {"class_name": "Ones", "config": {}}, "moving_mean_initializer": {"class_name": "Zeros", "config": {}}, "moving_variance_initializer": {"class_name": "Ones", "config": {}}, "beta_regularizer": null, "gamma_regularizer": null, "beta_constraint": null, "gamma_constraint": null}, "name": "bn5b_branch2a", "inbound_nodes": [[["res5b_branch2a", 0, 0, {}]]]}, {"class_name": "Activation", "config": {"name": "activation_190", "trainable": true, "dtype": "float32", "activation": "relu"}, "name": "activation_190", "inbound_nodes": [[["bn5b_branch2a", 0, 0, {}]]]}, {"class_name": "Conv2D", "config": {"name": "res5b_branch2b", "trainable": true, "dtype": "float32", "filters": 512, "kernel_size": [3, 3], "strides": [1, 1], "padding": "same", "data_format": "channels_last", "dilation_rate": [1, 1], "activation": "linear", "use_bias": true, "kernel_initializer": {"class_name": "VarianceScaling", "config": {"scale": 2.0, "mode": "fan_in", "distribution": "truncated_normal", "seed": null}}, "bias_initializer": {"class_name": "Zeros", "config": {}}, "kernel_regularizer": null, "bias_regularizer": null, "activity_regularizer": null, "kernel_constraint": null, "bias_constraint": null}, "name": "res5b_branch2b", "inbound_nodes": [[["activation_190", 0, 0, {}]]]}, {"class_name": "BatchNormalization", "config": {"name": "bn5b_branch2b", "trainable": true, "dtype": "float32", "axis": [3], "momentum": 0.99, "epsilon": 0.001, "center": true, "scale": true, "beta_initializer": {"class_name": "Zeros", "config": {}}, "gamma_initializer": {"class_name": "Ones", "config": {}}, "moving_mean_initializer": {"class_name": "Zeros", "config": {}}, "moving_variance_initializer": {"class_name": "Ones", "config": {}}, "beta_regularizer": null, "gamma_regularizer": null, "beta_constraint": null, "gamma_constraint": null}, "name": "bn5b_branch2b", "inbound_nodes": [[["res5b_branch2b", 0, 0, {}]]]}, {"class_name": "Activation", "config": {"name": "activation_191", "trainable": true, "dtype": "float32", "activation": "relu"}, "name": "activation_191", "inbound_nodes": [[["bn5b_branch2b", 0, 0, {}]]]}, {"class_name": "Conv2D", "config": {"name": "res5b_branch2c", "trainable": true, "dtype": "float32", "filters": 2048, "kernel_size": [1, 1], "strides": [1, 1], "padding": "valid", "data_format": "channels_last", "dilation_rate": [1, 1], "activation": "linear", "use_bias": true, "kernel_initializer": {"class_name": "VarianceScaling", "config": {"scale": 2.0, "mode": "fan_in", "distribution": "truncated_normal", "seed": null}}, "bias_initializer": {"class_name": "Zeros", "config": {}}, "kernel_regularizer": null, "bias_regularizer": null, "activity_regularizer": null, "kernel_constraint": null, "bias_constraint": null}, "name": "res5b_branch2c", "inbound_nodes": [[["activation_191", 0, 0, {}]]]}, {"class_name": "BatchNormalization", "config": {"name": "bn5b_branch2c", "trainable": true, "dtype": "float32", "axis": [3], "momentum": 0.99, "epsilon": 0.001, "center": true, "scale": true, "beta_initializer": {"class_name": "Zeros", "config": {}}, "gamma_initializer": {"class_name": "Ones", "config": {}}, "moving_mean_initializer": {"class_name": "Zeros", "config": {}}, "moving_variance_initializer": {"class_name": "Ones", "config": {}}, "beta_regularizer": null, "gamma_regularizer": null, "beta_constraint": null, "gamma_constraint": null}, "name": "bn5b_branch2c", "inbound_nodes": [[["res5b_branch2c", 0, 0, {}]]]}, {"class_name": "Add", "config": {"name": "add_62", "trainable": true, "dtype": "float32"}, "name": "add_62", "inbound_nodes": [[["bn5b_branch2c", 0, 0, {}], ["activation_189", 0, 0, {}]]]}, {"class_name": "Activation", "config": {"name": "activation_192", "trainable": true, "dtype": "float32", "activation": "relu"}, "name": "activation_192", "inbound_nodes": [[["add_62", 0, 0, {}]]]}, {"class_name": "Conv2D", "config": {"name": "res5c_branch2a", "trainable": true, "dtype": "float32", "filters": 512, "kernel_size": [1, 1], "strides": [1, 1], "padding": "valid", "data_format": "channels_last", "dilation_rate": [1, 1], "activation": "linear", "use_bias": true, "kernel_initializer": {"class_name": "VarianceScaling", "config": {"scale": 2.0, "mode": "fan_in", "distribution": "truncated_normal", "seed": null}}, "bias_initializer": {"class_name": "Zeros", "config": {}}, "kernel_regularizer": null, "bias_regularizer": null, "activity_regularizer": null, "kernel_constraint": null, "bias_constraint": null}, "name": "res5c_branch2a", "inbound_nodes": [[["activation_192", 0, 0, {}]]]}, {"class_name": "BatchNormalization", "config": {"name": "bn5c_branch2a", "trainable": true, "dtype": "float32", "axis": [3], "momentum": 0.99, "epsilon": 0.001, "center": true, "scale": true, "beta_initializer": {"class_name": "Zeros", "config": {}}, "gamma_initializer": {"class_name": "Ones", "config": {}}, "moving_mean_initializer": {"class_name": "Zeros", "config": {}}, "moving_variance_initializer": {"class_name": "Ones", "config": {}}, "beta_regularizer": null, "gamma_regularizer": null, "beta_constraint": null, "gamma_constraint": null}, "name": "bn5c_branch2a", "inbound_nodes": [[["res5c_branch2a", 0, 0, {}]]]}, {"class_name": "Activation", "config": {"name": "activation_193", "trainable": true, "dtype": "float32", "activation": "relu"}, "name": "activation_193", "inbound_nodes": [[["bn5c_branch2a", 0, 0, {}]]]}, {"class_name": "Conv2D", "config": {"name": "res5c_branch2b", "trainable": true, "dtype": "float32", "filters": 512, "kernel_size": [3, 3], "strides": [1, 1], "padding": "same", "data_format": "channels_last", "dilation_rate": [1, 1], "activation": "linear", "use_bias": true, "kernel_initializer": {"class_name": "VarianceScaling", "config": {"scale": 2.0, "mode": "fan_in", "distribution": "truncated_normal", "seed": null}}, "bias_initializer": {"class_name": "Zeros", "config": {}}, "kernel_regularizer": null, "bias_regularizer": null, "activity_regularizer": null, "kernel_constraint": null, "bias_constraint": null}, "name": "res5c_branch2b", "inbound_nodes": [[["activation_193", 0, 0, {}]]]}, {"class_name": "BatchNormalization", "config": {"name": "bn5c_branch2b", "trainable": true, "dtype": "float32", "axis": [3], "momentum": 0.99, "epsilon": 0.001, "center": true, "scale": true, "beta_initializer": {"class_name": "Zeros", "config": {}}, "gamma_initializer": {"class_name": "Ones", "config": {}}, "moving_mean_initializer": {"class_name": "Zeros", "config": {}}, "moving_variance_initializer": {"class_name": "Ones", "config": {}}, "beta_regularizer": null, "gamma_regularizer": null, "beta_constraint": null, "gamma_constraint": null}, "name": "bn5c_branch2b", "inbound_nodes": [[["res5c_branch2b", 0, 0, {}]]]}, {"class_name": "Activation", "config": {"name": "activation_194", "trainable": true, "dtype": "float32", "activation": "relu"}, "name": "activation_194", "inbound_nodes": [[["bn5c_branch2b", 0, 0, {}]]]}, {"class_name": "Conv2D", "config": {"name": "res5c_branch2c", "trainable": true, "dtype": "float32", "filters": 2048, "kernel_size": [1, 1], "strides": [1, 1], "padding": "valid", "data_format": "channels_last", "dilation_rate": [1, 1], "activation": "linear", "use_bias": true, "kernel_initializer": {"class_name": "VarianceScaling", "config": {"scale": 2.0, "mode": "fan_in", "distribution": "truncated_normal", "seed": null}}, "bias_initializer": {"class_name": "Zeros", "config": {}}, "kernel_regularizer": null, "bias_regularizer": null, "activity_regularizer": null, "kernel_constraint": null, "bias_constraint": null}, "name": "res5c_branch2c", "inbound_nodes": [[["activation_194", 0, 0, {}]]]}, {"class_name": "BatchNormalization", "config": {"name": "bn5c_branch2c", "trainable": true, "dtype": "float32", "axis": [3], "momentum": 0.99, "epsilon": 0.001, "center": true, "scale": true, "beta_initializer": {"class_name": "Zeros", "config": {}}, "gamma_initializer": {"class_name": "Ones", "config": {}}, "moving_mean_initializer": {"class_name": "Zeros", "config": {}}, "moving_variance_initializer": {"class_name": "Ones", "config": {}}, "beta_regularizer": null, "gamma_regularizer": null, "beta_constraint": null, "gamma_constraint": null}, "name": "bn5c_branch2c", "inbound_nodes": [[["res5c_branch2c", 0, 0, {}]]]}, {"class_name": "Add", "config": {"name": "add_63", "trainable": true, "dtype": "float32"}, "name": "add_63", "inbound_nodes": [[["bn5c_branch2c", 0, 0, {}], ["activation_192", 0, 0, {}]]]}, {"class_name": "Activation", "config": {"name": "activation_195", "trainable": true, "dtype": "float32", "activation": "relu"}, "name": "activation_195", "inbound_nodes": [[["add_63", 0, 0, {}]]]}, {"class_name": "GlobalAveragePooling2D", "config": {"name": "global_average_pooling2d_3", "trainable": true, "dtype": "float32", "data_format": "channels_last"}, "name": "global_average_pooling2d_3", "inbound_nodes": [[["activation_195", 0, 0, {}]]]}, {"class_name": "Dense", "config": {"name": "fc", "trainable": true, "dtype": "float32", "units": 150, "activation": "softmax", "use_bias": true, "kernel_initializer": {"class_name": "GlorotUniform", "config": {"seed": null}}, "bias_initializer": {"class_name": "Zeros", "config": {}}, "kernel_regularizer": null, "bias_regularizer": null, "activity_regularizer": null, "kernel_constraint": null, "bias_constraint": null}, "name": "fc", "inbound_nodes": [[["global_average_pooling2d_3", 0, 0, {}]]]}], "input_layers": [["input_4", 0, 0]], "output_layers": [["fc", 0, 0]]}}, "training_config": {"loss": "categorical_crossentropy", "metrics": ["accuracy"], "weighted_metrics": null, "loss_weights": null, "sample_weight_mode": null, "optimizer_config": {"class_name": "Adam", "config": {"name": "Adam", "learning_rate": 0.0010000000474974513, "decay": 0.0, "beta_1": 0.8999999761581421, "beta_2": 0.9990000128746033, "epsilon": 1e-07, "amsgrad": false}}}}, "weightsManifest": [{"paths": ["group1-shard1of23.bin", "group1-shard2of23.bin", "group1-shard3of23.bin", "group1-shard4of23.bin", "group1-shard5of23.bin", "group1-shard6of23.bin", "group1-shard7of23.bin", "group1-shard8of23.bin", "group1-shard9of23.bin", "group1-shard10of23.bin", "group1-shard11of23.bin", "group1-shard12of23.bin", "group1-shard13of23.bin", "group1-shard14of23.bin", "group1-shard15of23.bin", "group1-shard16of23.bin", "group1-shard17of23.bin", "group1-shard18of23.bin", "group1-shard19of23.bin", "group1-shard20of23.bin", "group1-shard21of23.bin", "group1-shard22of23.bin", "group1-shard23of23.bin"], "weights": [{"name": "bn2a_branch1_3/gamma", "shape": [256], "dtype": "float32"}, {"name": "bn2a_branch1_3/beta", "shape": [256], "dtype": "float32"}, {"name": "bn2a_branch1_3/moving_mean", "shape": [256], "dtype": "float32"}, {"name": "bn2a_branch1_3/moving_variance", "shape": [256], "dtype": "float32"}, {"name": "bn2a_branch2a_3/gamma", "shape": [64], "dtype": "float32"}, {"name": "bn2a_branch2a_3/beta", "shape": [64], "dtype": "float32"}, {"name": "bn2a_branch2a_3/moving_mean", "shape": [64], "dtype": "float32"}, {"name": "bn2a_branch2a_3/moving_variance", "shape": [64], "dtype": "float32"}, {"name": "bn2a_branch2b_3/gamma", "shape": [64], "dtype": "float32"}, {"name": "bn2a_branch2b_3/beta", "shape": [64], "dtype": "float32"}, {"name": "bn2a_branch2b_3/moving_mean", "shape": [64], "dtype": "float32"}, {"name": "bn2a_branch2b_3/moving_variance", "shape": [64], "dtype": "float32"}, {"name": "bn2a_branch2c_3/gamma", "shape": [256], "dtype": "float32"}, {"name": "bn2a_branch2c_3/beta", "shape": [256], "dtype": "float32"}, {"name": "bn2a_branch2c_3/moving_mean", "shape": [256], "dtype": "float32"}, {"name": "bn2a_branch2c_3/moving_variance", "shape": [256], "dtype": "float32"}, {"name": "bn2b_branch2a_3/gamma", "shape": [64], "dtype": "float32"}, {"name": "bn2b_branch2a_3/beta", "shape": [64], "dtype": "float32"}, {"name": "bn2b_branch2a_3/moving_mean", "shape": [64], "dtype": "float32"}, {"name": "bn2b_branch2a_3/moving_variance", "shape": [64], "dtype": "float32"}, {"name": "bn2b_branch2b_3/gamma", "shape": [64], "dtype": "float32"}, {"name": "bn2b_branch2b_3/beta", "shape": [64], "dtype": "float32"}, {"name": "bn2b_branch2b_3/moving_mean", "shape": [64], "dtype": "float32"}, {"name": "bn2b_branch2b_3/moving_variance", "shape": [64], "dtype": "float32"}, {"name": "bn2b_branch2c_3/gamma", "shape": [256], "dtype": "float32"}, {"name": "bn2b_branch2c_3/beta", "shape": [256], "dtype": "float32"}, {"name": "bn2b_branch2c_3/moving_mean", "shape": [256], "dtype": "float32"}, {"name": "bn2b_branch2c_3/moving_variance", "shape": [256], "dtype": "float32"}, {"name": "bn2c_branch2a_3/gamma", "shape": [64], "dtype": "float32"}, {"name": "bn2c_branch2a_3/beta", "shape": [64], "dtype": "float32"}, {"name": "bn2c_branch2a_3/moving_mean", "shape": [64], "dtype": "float32"}, {"name": "bn2c_branch2a_3/moving_variance", "shape": [64], "dtype": "float32"}, {"name": "bn2c_branch2b_3/gamma", "shape": [64], "dtype": "float32"}, {"name": "bn2c_branch2b_3/beta", "shape": [64], "dtype": "float32"}, {"name": "bn2c_branch2b_3/moving_mean", "shape": [64], "dtype": "float32"}, {"name": "bn2c_branch2b_3/moving_variance", "shape": [64], "dtype": "float32"}, {"name": "bn2c_branch2c_3/gamma", "shape": [256], "dtype": "float32"}, {"name": "bn2c_branch2c_3/beta", "shape": [256], "dtype": "float32"}, {"name": "bn2c_branch2c_3/moving_mean", "shape": [256], "dtype": "float32"}, {"name": "bn2c_branch2c_3/moving_variance", "shape": [256], "dtype": "float32"}, {"name": "bn3a_branch1_3/gamma", "shape": [512], "dtype": "float32"}, {"name": "bn3a_branch1_3/beta", "shape": [512], "dtype": "float32"}, {"name": "bn3a_branch1_3/moving_mean", "shape": [512], "dtype": "float32"}, {"name": "bn3a_branch1_3/moving_variance", "shape": [512], "dtype": "float32"}, {"name": "bn3a_branch2a_3/gamma", "shape": [128], "dtype": "float32"}, {"name": "bn3a_branch2a_3/beta", "shape": [128], "dtype": "float32"}, {"name": "bn3a_branch2a_3/moving_mean", "shape": [128], "dtype": "float32"}, {"name": "bn3a_branch2a_3/moving_variance", "shape": [128], "dtype": "float32"}, {"name": "bn3a_branch2b_3/gamma", "shape": [128], "dtype": "float32"}, {"name": "bn3a_branch2b_3/beta", "shape": [128], "dtype": "float32"}, {"name": "bn3a_branch2b_3/moving_mean", "shape": [128], "dtype": "float32"}, {"name": "bn3a_branch2b_3/moving_variance", "shape": [128], "dtype": "float32"}, {"name": "bn3a_branch2c_3/gamma", "shape": [512], "dtype": "float32"}, {"name": "bn3a_branch2c_3/beta", "shape": [512], "dtype": "float32"}, {"name": "bn3a_branch2c_3/moving_mean", "shape": [512], "dtype": "float32"}, {"name": "bn3a_branch2c_3/moving_variance", "shape": [512], "dtype": "float32"}, {"name": "bn3b_branch2a_3/gamma", "shape": [128], "dtype": "float32"}, {"name": "bn3b_branch2a_3/beta", "shape": [128], "dtype": "float32"}, {"name": "bn3b_branch2a_3/moving_mean", "shape": [128], "dtype": "float32"}, {"name": "bn3b_branch2a_3/moving_variance", "shape": [128], "dtype": "float32"}, {"name": "bn3b_branch2b_3/gamma", "shape": [128], "dtype": "float32"}, {"name": "bn3b_branch2b_3/beta", "shape": [128], "dtype": "float32"}, {"name": "bn3b_branch2b_3/moving_mean", "shape": [128], "dtype": "float32"}, {"name": "bn3b_branch2b_3/moving_variance", "shape": [128], "dtype": "float32"}, {"name": "bn3b_branch2c_3/gamma", "shape": [512], "dtype": "float32"}, {"name": "bn3b_branch2c_3/beta", "shape": [512], "dtype": "float32"}, {"name": "bn3b_branch2c_3/moving_mean", "shape": [512], "dtype": "float32"}, {"name": "bn3b_branch2c_3/moving_variance", "shape": [512], "dtype": "float32"}, {"name": "bn3c_branch2a_3/gamma", "shape": [128], "dtype": "float32"}, {"name": "bn3c_branch2a_3/beta", "shape": [128], "dtype": "float32"}, {"name": "bn3c_branch2a_3/moving_mean", "shape": [128], "dtype": "float32"}, {"name": "bn3c_branch2a_3/moving_variance", "shape": [128], "dtype": "float32"}, {"name": "bn3c_branch2b_3/gamma", "shape": [128], "dtype": "float32"}, {"name": "bn3c_branch2b_3/beta", "shape": [128], "dtype": "float32"}, {"name": "bn3c_branch2b_3/moving_mean", "shape": [128], "dtype": "float32"}, {"name": "bn3c_branch2b_3/moving_variance", "shape": [128], "dtype": "float32"}, {"name": "bn3c_branch2c_3/gamma", "shape": [512], "dtype": "float32"}, {"name": "bn3c_branch2c_3/beta", "shape": [512], "dtype": "float32"}, {"name": "bn3c_branch2c_3/moving_mean", "shape": [512], "dtype": "float32"}, {"name": "bn3c_branch2c_3/moving_variance", "shape": [512], "dtype": "float32"}, {"name": "bn3d_branch2a_3/gamma", "shape": [128], "dtype": "float32"}, {"name": "bn3d_branch2a_3/beta", "shape": [128], "dtype": "float32"}, {"name": "bn3d_branch2a_3/moving_mean", "shape": [128], "dtype": "float32"}, {"name": "bn3d_branch2a_3/moving_variance", "shape": [128], "dtype": "float32"}, {"name": "bn3d_branch2b_3/gamma", "shape": [128], "dtype": "float32"}, {"name": "bn3d_branch2b_3/beta", "shape": [128], "dtype": "float32"}, {"name": "bn3d_branch2b_3/moving_mean", "shape": [128], "dtype": "float32"}, {"name": "bn3d_branch2b_3/moving_variance", "shape": [128], "dtype": "float32"}, {"name": "bn3d_branch2c_3/gamma", "shape": [512], "dtype": "float32"}, {"name": "bn3d_branch2c_3/beta", "shape": [512], "dtype": "float32"}, {"name": "bn3d_branch2c_3/moving_mean", "shape": [512], "dtype": "float32"}, {"name": "bn3d_branch2c_3/moving_variance", "shape": [512], "dtype": "float32"}, {"name": "bn4a_branch1_3/gamma", "shape": [1024], "dtype": "float32"}, {"name": "bn4a_branch1_3/beta", "shape": [1024], "dtype": "float32"}, {"name": "bn4a_branch1_3/moving_mean", "shape": [1024], "dtype": "float32"}, {"name": "bn4a_branch1_3/moving_variance", "shape": [1024], "dtype": "float32"}, {"name": "bn4a_branch2a_3/gamma", "shape": [256], "dtype": "float32"}, {"name": "bn4a_branch2a_3/beta", "shape": [256], "dtype": "float32"}, {"name": "bn4a_branch2a_3/moving_mean", "shape": [256], "dtype": "float32"}, {"name": "bn4a_branch2a_3/moving_variance", "shape": [256], "dtype": "float32"}, {"name": "bn4a_branch2b_3/gamma", "shape": [256], "dtype": "float32"}, {"name": "bn4a_branch2b_3/beta", "shape": [256], "dtype": "float32"}, {"name": "bn4a_branch2b_3/moving_mean", "shape": [256], "dtype": "float32"}, {"name": "bn4a_branch2b_3/moving_variance", "shape": [256], "dtype": "float32"}, {"name": "bn4a_branch2c_3/gamma", "shape": [1024], "dtype": "float32"}, {"name": "bn4a_branch2c_3/beta", "shape": [1024], "dtype": "float32"}, {"name": "bn4a_branch2c_3/moving_mean", "shape": [1024], "dtype": "float32"}, {"name": "bn4a_branch2c_3/moving_variance", "shape": [1024], "dtype": "float32"}, {"name": "bn4b_branch2a_3/gamma", "shape": [256], "dtype": "float32"}, {"name": "bn4b_branch2a_3/beta", "shape": [256], "dtype": "float32"}, {"name": "bn4b_branch2a_3/moving_mean", "shape": [256], "dtype": "float32"}, {"name": "bn4b_branch2a_3/moving_variance", "shape": [256], "dtype": "float32"}, {"name": "bn4b_branch2b_3/gamma", "shape": [256], "dtype": "float32"}, {"name": "bn4b_branch2b_3/beta", "shape": [256], "dtype": "float32"}, {"name": "bn4b_branch2b_3/moving_mean", "shape": [256], "dtype": "float32"}, {"name": "bn4b_branch2b_3/moving_variance", "shape": [256], "dtype": "float32"}, {"name": "bn4b_branch2c_3/gamma", "shape": [1024], "dtype": "float32"}, {"name": "bn4b_branch2c_3/beta", "shape": [1024], "dtype": "float32"}, {"name": "bn4b_branch2c_3/moving_mean", "shape": [1024], "dtype": "float32"}, {"name": "bn4b_branch2c_3/moving_variance", "shape": [1024], "dtype": "float32"}, {"name": "bn4c_branch2a_3/gamma", "shape": [256], "dtype": "float32"}, {"name": "bn4c_branch2a_3/beta", "shape": [256], "dtype": "float32"}, {"name": "bn4c_branch2a_3/moving_mean", "shape": [256], "dtype": "float32"}, {"name": "bn4c_branch2a_3/moving_variance", "shape": [256], "dtype": "float32"}, {"name": "bn4c_branch2b_3/gamma", "shape": [256], "dtype": "float32"}, {"name": "bn4c_branch2b_3/beta", "shape": [256], "dtype": "float32"}, {"name": "bn4c_branch2b_3/moving_mean", "shape": [256], "dtype": "float32"}, {"name": "bn4c_branch2b_3/moving_variance", "shape": [256], "dtype": "float32"}, {"name": "bn4c_branch2c_3/gamma", "shape": [1024], "dtype": "float32"}, {"name": "bn4c_branch2c_3/beta", "shape": [1024], "dtype": "float32"}, {"name": "bn4c_branch2c_3/moving_mean", "shape": [1024], "dtype": "float32"}, {"name": "bn4c_branch2c_3/moving_variance", "shape": [1024], "dtype": "float32"}, {"name": "bn4d_branch2a_3/gamma", "shape": [256], "dtype": "float32"}, {"name": "bn4d_branch2a_3/beta", "shape": [256], "dtype": "float32"}, {"name": "bn4d_branch2a_3/moving_mean", "shape": [256], "dtype": "float32"}, {"name": "bn4d_branch2a_3/moving_variance", "shape": [256], "dtype": "float32"}, {"name": "bn4d_branch2b_3/gamma", "shape": [256], "dtype": "float32"}, {"name": "bn4d_branch2b_3/beta", "shape": [256], "dtype": "float32"}, {"name": "bn4d_branch2b_3/moving_mean", "shape": [256], "dtype": "float32"}, {"name": "bn4d_branch2b_3/moving_variance", "shape": [256], "dtype": "float32"}, {"name": "bn4d_branch2c_3/gamma", "shape": [1024], "dtype": "float32"}, {"name": "bn4d_branch2c_3/beta", "shape": [1024], "dtype": "float32"}, {"name": "bn4d_branch2c_3/moving_mean", "shape": [1024], "dtype": "float32"}, {"name": "bn4d_branch2c_3/moving_variance", "shape": [1024], "dtype": "float32"}, {"name": "bn4e_branch2a_3/gamma", "shape": [256], "dtype": "float32"}, {"name": "bn4e_branch2a_3/beta", "shape": [256], "dtype": "float32"}, {"name": "bn4e_branch2a_3/moving_mean", "shape": [256], "dtype": "float32"}, {"name": "bn4e_branch2a_3/moving_variance", "shape": [256], "dtype": "float32"}, {"name": "bn4e_branch2b_3/gamma", "shape": [256], "dtype": "float32"}, {"name": "bn4e_branch2b_3/beta", "shape": [256], "dtype": "float32"}, {"name": "bn4e_branch2b_3/moving_mean", "shape": [256], "dtype": "float32"}, {"name": "bn4e_branch2b_3/moving_variance", "shape": [256], "dtype": "float32"}, {"name": "bn4e_branch2c_3/gamma", "shape": [1024], "dtype": "float32"}, {"name": "bn4e_branch2c_3/beta", "shape": [1024], "dtype": "float32"}, {"name": "bn4e_branch2c_3/moving_mean", "shape": [1024], "dtype": "float32"}, {"name": "bn4e_branch2c_3/moving_variance", "shape": [1024], "dtype": "float32"}, {"name": "bn4f_branch2a_3/gamma", "shape": [256], "dtype": "float32"}, {"name": "bn4f_branch2a_3/beta", "shape": [256], "dtype": "float32"}, {"name": "bn4f_branch2a_3/moving_mean", "shape": [256], "dtype": "float32"}, {"name": "bn4f_branch2a_3/moving_variance", "shape": [256], "dtype": "float32"}, {"name": "bn4f_branch2b_3/gamma", "shape": [256], "dtype": "float32"}, {"name": "bn4f_branch2b_3/beta", "shape": [256], "dtype": "float32"}, {"name": "bn4f_branch2b_3/moving_mean", "shape": [256], "dtype": "float32"}, {"name": "bn4f_branch2b_3/moving_variance", "shape": [256], "dtype": "float32"}, {"name": "bn4f_branch2c_3/gamma", "shape": [1024], "dtype": "float32"}, {"name": "bn4f_branch2c_3/beta", "shape": [1024], "dtype": "float32"}, {"name": "bn4f_branch2c_3/moving_mean", "shape": [1024], "dtype": "float32"}, {"name": "bn4f_branch2c_3/moving_variance", "shape": [1024], "dtype": "float32"}, {"name": "bn5a_branch1_3/gamma", "shape": [2048], "dtype": "float32"}, {"name": "bn5a_branch1_3/beta", "shape": [2048], "dtype": "float32"}, {"name": "bn5a_branch1_3/moving_mean", "shape": [2048], "dtype": "float32"}, {"name": "bn5a_branch1_3/moving_variance", "shape": [2048], "dtype": "float32"}, {"name": "bn5a_branch2a_3/gamma", "shape": [512], "dtype": "float32"}, {"name": "bn5a_branch2a_3/beta", "shape": [512], "dtype": "float32"}, {"name": "bn5a_branch2a_3/moving_mean", "shape": [512], "dtype": "float32"}, {"name": "bn5a_branch2a_3/moving_variance", "shape": [512], "dtype": "float32"}, {"name": "bn5a_branch2b_3/gamma", "shape": [512], "dtype": "float32"}, {"name": "bn5a_branch2b_3/beta", "shape": [512], "dtype": "float32"}, {"name": "bn5a_branch2b_3/moving_mean", "shape": [512], "dtype": "float32"}, {"name": "bn5a_branch2b_3/moving_variance", "shape": [512], "dtype": "float32"}, {"name": "bn5a_branch2c_3/gamma", "shape": [2048], "dtype": "float32"}, {"name": "bn5a_branch2c_3/beta", "shape": [2048], "dtype": "float32"}, {"name": "bn5a_branch2c_3/moving_mean", "shape": [2048], "dtype": "float32"}, {"name": "bn5a_branch2c_3/moving_variance", "shape": [2048], "dtype": "float32"}, {"name": "bn5b_branch2a_3/gamma", "shape": [512], "dtype": "float32"}, {"name": "bn5b_branch2a_3/beta", "shape": [512], "dtype": "float32"}, {"name": "bn5b_branch2a_3/moving_mean", "shape": [512], "dtype": "float32"}, {"name": "bn5b_branch2a_3/moving_variance", "shape": [512], "dtype": "float32"}, {"name": "bn5b_branch2b_3/gamma", "shape": [512], "dtype": "float32"}, {"name": "bn5b_branch2b_3/beta", "shape": [512], "dtype": "float32"}, {"name": "bn5b_branch2b_3/moving_mean", "shape": [512], "dtype": "float32"}, {"name": "bn5b_branch2b_3/moving_variance", "shape": [512], "dtype": "float32"}, {"name": "bn5b_branch2c_3/gamma", "shape": [2048], "dtype": "float32"}, {"name": "bn5b_branch2c_3/beta", "shape": [2048], "dtype": "float32"}, {"name": "bn5b_branch2c_3/moving_mean", "shape": [2048], "dtype": "float32"}, {"name": "bn5b_branch2c_3/moving_variance", "shape": [2048], "dtype": "float32"}, {"name": "bn5c_branch2a_3/gamma", "shape": [512], "dtype": "float32"}, {"name": "bn5c_branch2a_3/beta", "shape": [512], "dtype": "float32"}, {"name": "bn5c_branch2a_3/moving_mean", "shape": [512], "dtype": "float32"}, {"name": "bn5c_branch2a_3/moving_variance", "shape": [512], "dtype": "float32"}, {"name": "bn5c_branch2b_3/gamma", "shape": [512], "dtype": "float32"}, {"name": "bn5c_branch2b_3/beta", "shape": [512], "dtype": "float32"}, {"name": "bn5c_branch2b_3/moving_mean", "shape": [512], "dtype": "float32"}, {"name": "bn5c_branch2b_3/moving_variance", "shape": [512], "dtype": "float32"}, {"name": "bn5c_branch2c_3/gamma", "shape": [2048], "dtype": "float32"}, {"name": "bn5c_branch2c_3/beta", "shape": [2048], "dtype": "float32"}, {"name": "bn5c_branch2c_3/moving_mean", "shape": [2048], "dtype": "float32"}, {"name": "bn5c_branch2c_3/moving_variance", "shape": [2048], "dtype": "float32"}, {"name": "bn_conv1_3/gamma", "shape": [64], "dtype": "float32"}, {"name": "bn_conv1_3/beta", "shape": [64], "dtype": "float32"}, {"name": "bn_conv1_3/moving_mean", "shape": [64], "dtype": "float32"}, {"name": "bn_conv1_3/moving_variance", "shape": [64], "dtype": "float32"}, {"name": "conv1_3/kernel", "shape": [7, 7, 3, 64], "dtype": "float32"}, {"name": "conv1_3/bias", "shape": [64], "dtype": "float32"}, {"name": "fc_3/kernel", "shape": [2048, 150], "dtype": "float32"}, {"name": "fc_3/bias", "shape": [150], "dtype": "float32"}, {"name": "res2a_branch1_3/kernel", "shape": [1, 1, 64, 256], "dtype": "float32"}, {"name": "res2a_branch1_3/bias", "shape": [256], "dtype": "float32"}, {"name": "res2a_branch2a_3/kernel", "shape": [1, 1, 64, 64], "dtype": "float32"}, {"name": "res2a_branch2a_3/bias", "shape": [64], "dtype": "float32"}, {"name": "res2a_branch2b_3/kernel", "shape": [3, 3, 64, 64], "dtype": "float32"}, {"name": "res2a_branch2b_3/bias", "shape": [64], "dtype": "float32"}, {"name": "res2a_branch2c_3/kernel", "shape": [1, 1, 64, 256], "dtype": "float32"}, {"name": "res2a_branch2c_3/bias", "shape": [256], "dtype": "float32"}, {"name": "res2b_branch2a_3/kernel", "shape": [1, 1, 256, 64], "dtype": "float32"}, {"name": "res2b_branch2a_3/bias", "shape": [64], "dtype": "float32"}, {"name": "res2b_branch2b_3/kernel", "shape": [3, 3, 64, 64], "dtype": "float32"}, {"name": "res2b_branch2b_3/bias", "shape": [64], "dtype": "float32"}, {"name": "res2b_branch2c_3/kernel", "shape": [1, 1, 64, 256], "dtype": "float32"}, {"name": "res2b_branch2c_3/bias", "shape": [256], "dtype": "float32"}, {"name": "res2c_branch2a_3/kernel", "shape": [1, 1, 256, 64], "dtype": "float32"}, {"name": "res2c_branch2a_3/bias", "shape": [64], "dtype": "float32"}, {"name": "res2c_branch2b_3/kernel", "shape": [3, 3, 64, 64], "dtype": "float32"}, {"name": "res2c_branch2b_3/bias", "shape": [64], "dtype": "float32"}, {"name": "res2c_branch2c_3/kernel", "shape": [1, 1, 64, 256], "dtype": "float32"}, {"name": "res2c_branch2c_3/bias", "shape": [256], "dtype": "float32"}, {"name": "res3a_branch1_3/kernel", "shape": [1, 1, 256, 512], "dtype": "float32"}, {"name": "res3a_branch1_3/bias", "shape": [512], "dtype": "float32"}, {"name": "res3a_branch2a_3/kernel", "shape": [1, 1, 256, 128], "dtype": "float32"}, {"name": "res3a_branch2a_3/bias", "shape": [128], "dtype": "float32"}, {"name": "res3a_branch2b_3/kernel", "shape": [3, 3, 128, 128], "dtype": "float32"}, {"name": "res3a_branch2b_3/bias", "shape": [128], "dtype": "float32"}, {"name": "res3a_branch2c_3/kernel", "shape": [1, 1, 128, 512], "dtype": "float32"}, {"name": "res3a_branch2c_3/bias", "shape": [512], "dtype": "float32"}, {"name": "res3b_branch2a_3/kernel", "shape": [1, 1, 512, 128], "dtype": "float32"}, {"name": "res3b_branch2a_3/bias", "shape": [128], "dtype": "float32"}, {"name": "res3b_branch2b_3/kernel", "shape": [3, 3, 128, 128], "dtype": "float32"}, {"name": "res3b_branch2b_3/bias", "shape": [128], "dtype": "float32"}, {"name": "res3b_branch2c_3/kernel", "shape": [1, 1, 128, 512], "dtype": "float32"}, {"name": "res3b_branch2c_3/bias", "shape": [512], "dtype": "float32"}, {"name": "res3c_branch2a_3/kernel", "shape": [1, 1, 512, 128], "dtype": "float32"}, {"name": "res3c_branch2a_3/bias", "shape": [128], "dtype": "float32"}, {"name": "res3c_branch2b_3/kernel", "shape": [3, 3, 128, 128], "dtype": "float32"}, {"name": "res3c_branch2b_3/bias", "shape": [128], "dtype": "float32"}, {"name": "res3c_branch2c_3/kernel", "shape": [1, 1, 128, 512], "dtype": "float32"}, {"name": "res3c_branch2c_3/bias", "shape": [512], "dtype": "float32"}, {"name": "res3d_branch2a_3/kernel", "shape": [1, 1, 512, 128], "dtype": "float32"}, {"name": "res3d_branch2a_3/bias", "shape": [128], "dtype": "float32"}, {"name": "res3d_branch2b_3/kernel", "shape": [3, 3, 128, 128], "dtype": "float32"}, {"name": "res3d_branch2b_3/bias", "shape": [128], "dtype": "float32"}, {"name": "res3d_branch2c_3/kernel", "shape": [1, 1, 128, 512], "dtype": "float32"}, {"name": "res3d_branch2c_3/bias", "shape": [512], "dtype": "float32"}, {"name": "res4a_branch1_3/kernel", "shape": [1, 1, 512, 1024], "dtype": "float32"}, {"name": "res4a_branch1_3/bias", "shape": [1024], "dtype": "float32"}, {"name": "res4a_branch2a_3/kernel", "shape": [1, 1, 512, 256], "dtype": "float32"}, {"name": "res4a_branch2a_3/bias", "shape": [256], "dtype": "float32"}, {"name": "res4a_branch2b_3/kernel", "shape": [3, 3, 256, 256], "dtype": "float32"}, {"name": "res4a_branch2b_3/bias", "shape": [256], "dtype": "float32"}, {"name": "res4a_branch2c_3/kernel", "shape": [1, 1, 256, 1024], "dtype": "float32"}, {"name": "res4a_branch2c_3/bias", "shape": [1024], "dtype": "float32"}, {"name": "res4b_branch2a_3/kernel", "shape": [1, 1, 1024, 256], "dtype": "float32"}, {"name": "res4b_branch2a_3/bias", "shape": [256], "dtype": "float32"}, {"name": "res4b_branch2b_3/kernel", "shape": [3, 3, 256, 256], "dtype": "float32"}, {"name": "res4b_branch2b_3/bias", "shape": [256], "dtype": "float32"}, {"name": "res4b_branch2c_3/kernel", "shape": [1, 1, 256, 1024], "dtype": "float32"}, {"name": "res4b_branch2c_3/bias", "shape": [1024], "dtype": "float32"}, {"name": "res4c_branch2a_3/kernel", "shape": [1, 1, 1024, 256], "dtype": "float32"}, {"name": "res4c_branch2a_3/bias", "shape": [256], "dtype": "float32"}, {"name": "res4c_branch2b_3/kernel", "shape": [3, 3, 256, 256], "dtype": "float32"}, {"name": "res4c_branch2b_3/bias", "shape": [256], "dtype": "float32"}, {"name": "res4c_branch2c_3/kernel", "shape": [1, 1, 256, 1024], "dtype": "float32"}, {"name": "res4c_branch2c_3/bias", "shape": [1024], "dtype": "float32"}, {"name": "res4d_branch2a_3/kernel", "shape": [1, 1, 1024, 256], "dtype": "float32"}, {"name": "res4d_branch2a_3/bias", "shape": [256], "dtype": "float32"}, {"name": "res4d_branch2b_3/kernel", "shape": [3, 3, 256, 256], "dtype": "float32"}, {"name": "res4d_branch2b_3/bias", "shape": [256], "dtype": "float32"}, {"name": "res4d_branch2c_3/kernel", "shape": [1, 1, 256, 1024], "dtype": "float32"}, {"name": "res4d_branch2c_3/bias", "shape": [1024], "dtype": "float32"}, {"name": "res4e_branch2a_3/kernel", "shape": [1, 1, 1024, 256], "dtype": "float32"}, {"name": "res4e_branch2a_3/bias", "shape": [256], "dtype": "float32"}, {"name": "res4e_branch2b_3/kernel", "shape": [3, 3, 256, 256], "dtype": "float32"}, {"name": "res4e_branch2b_3/bias", "shape": [256], "dtype": "float32"}, {"name": "res4e_branch2c_3/kernel", "shape": [1, 1, 256, 1024], "dtype": "float32"}, {"name": "res4e_branch2c_3/bias", "shape": [1024], "dtype": "float32"}, {"name": "res4f_branch2a_3/kernel", "shape": [1, 1, 1024, 256], "dtype": "float32"}, {"name": "res4f_branch2a_3/bias", "shape": [256], "dtype": "float32"}, {"name": "res4f_branch2b_3/kernel", "shape": [3, 3, 256, 256], "dtype": "float32"}, {"name": "res4f_branch2b_3/bias", "shape": [256], "dtype": "float32"}, {"name": "res4f_branch2c_3/kernel", "shape": [1, 1, 256, 1024], "dtype": "float32"}, {"name": "res4f_branch2c_3/bias", "shape": [1024], "dtype": "float32"}, {"name": "res5a_branch1_3/kernel", "shape": [1, 1, 1024, 2048], "dtype": "float32"}, {"name": "res5a_branch1_3/bias", "shape": [2048], "dtype": "float32"}, {"name": "res5a_branch2a_3/kernel", "shape": [1, 1, 1024, 512], "dtype": "float32"}, {"name": "res5a_branch2a_3/bias", "shape": [512], "dtype": "float32"}, {"name": "res5a_branch2b_3/kernel", "shape": [3, 3, 512, 512], "dtype": "float32"}, {"name": "res5a_branch2b_3/bias", "shape": [512], "dtype": "float32"}, {"name": "res5a_branch2c_3/kernel", "shape": [1, 1, 512, 2048], "dtype": "float32"}, {"name": "res5a_branch2c_3/bias", "shape": [2048], "dtype": "float32"}, {"name": "res5b_branch2a_3/kernel", "shape": [1, 1, 2048, 512], "dtype": "float32"}, {"name": "res5b_branch2a_3/bias", "shape": [512], "dtype": "float32"}, {"name": "res5b_branch2b_3/kernel", "shape": [3, 3, 512, 512], "dtype": "float32"}, {"name": "res5b_branch2b_3/bias", "shape": [512], "dtype": "float32"}, {"name": "res5b_branch2c_3/kernel", "shape": [1, 1, 512, 2048], "dtype": "float32"}, {"name": "res5b_branch2c_3/bias", "shape": [2048], "dtype": "float32"}, {"name": "res5c_branch2a_3/kernel", "shape": [1, 1, 2048, 512], "dtype": "float32"}, {"name": "res5c_branch2a_3/bias", "shape": [512], "dtype": "float32"}, {"name": "res5c_branch2b_3/kernel", "shape": [3, 3, 512, 512], "dtype": "float32"}, {"name": "res5c_branch2b_3/bias", "shape": [512], "dtype": "float32"}, {"name": "res5c_branch2c_3/kernel", "shape": [1, 1, 512, 2048], "dtype": "float32"}, {"name": "res5c_branch2c_3/bias", "shape": [2048], "dtype": "float32"}]}]}